Pytorch/CampusX/models/digits_epochs_100.model (torch, 440329 bytes, 6 tensors)

network.0.weight f4 [128, 784]
000000 a1 ae df 3c 2c d6 f2 3c 37 15 09 bc 35 61 06 3d
       0.02730495 0.02964314 -0.008366874 0.032807548
000010 f7 34 00 bc 1c 27 ec 3b 9c 70 8e bc 77 d2 ab 3c
       -0.007825128 0.0072068106 -0.01738768 0.02097438
000020 07 f5 00 3d 7e a3 d6 bc 4e 4d fe 3c a5 07 db 3b
       0.031483676 -0.026201006 0.031042721 0.006684261
000030 f0 cc e0 3c 7d 38 ea 3b 10 13 8d 3c dc 3b a5 bb
       0.027441472 0.007147847 0.017221004 -0.005042536
000040 08 8a e1 3c 8a fa ac 3b 83 95 88 bc e5 26 15 3c
       0.027531639 0.00527889 -0.016672855 0.009103511
000050 63 cc 86 bc 25 3e 89 bb 21 a9 6d bc 5a 15 c2 3c
       -0.016454881 -0.0041883164 -0.0145056555 0.023691822
000060 7a f2 e6 bc e3 e0 86 bc c5 3a 25 bc 47 ea af bc
       -0.028191794 -0.016464656 -0.0100848125 -0.021474017
000070 13 e9 5c 3b bd 7b 10 bd aa 1c 04 3d b8 87 f8 bc
       0.003370826 -0.035274256 0.0322539 -0.030338153
000080 61 e3 e1 3c be 48 c3 3b 08 9b 2e bc 24 fe c0 3c
       0.027574243 0.0059595993 -0.0106570795 0.023558684
000090 c3 33 29 3c 80 21 ff 3c d2 c3 fe 3b 3d 06 dc bb
       0.010327282 0.031143904 0.0077748084 -0.006714611
0000a0 b6 8e 9b 3c 8e e1 c5 ba ea 34 ad 3c b6 1d 3d 3d
       0.018988948 -0.0015097128 0.021143395 0.046170913
0000b0 a5 e1 be 3c a7 e7 65 bc 67 91 da 3c 67 0f 92 3c
       0.023300955 -0.014032281 0.026680661 0.01782961
0000c0 c2 a9 c9 3c 38 07 87 bc 96 fa 01 bd ff 92 5c bc
       0.02461708 -0.016482934 -0.031733118 -0.013462781
0000d0 b3 68 e0 bc f5 10 f0 3c 1c 8a 28 3c c5 5f 72 3c
       -0.027393674 0.02930496 0.010286834 0.014793341
0000e0 d7 0e 39 3c b7 dd 22 ba 97 f9 e4 3c 86 60 cf bc
       0.011295042 -0.00062128477 0.027951045 -0.02531458
0000f0 3d df 1a 3b a6 e8 c5 bc ff 7e 5d 3c ed e8 b8 bb
       0.0023631596 -0.024158787 0.013519048 -0.0056430013
000100 6b 2a b9 3c 67 43 ff 3a ed a3 31 3d 43 26 ed 3b
       0.022603234 0.0019475044 0.043369222 0.007237227
000110 31 3d bd 3b 0b 80 17 3c 2f 52 95 3d 4a 86 70 3d
       0.005775117 0.009246836 0.07291066 0.058721818
000120 fd 09 a0 3d 25 1f 91 3c 2b 3f a0 3c 72 38 bb 3b
       0.07814405 0.017715046 0.01956137 0.005713516
000130 c7 2b b2 bb ce e2 00 3d fd aa e0 3c c6 4c 13 3d
       -0.0054373476 0.031466298 0.027425284 0.03596189
000140 d6 27 86 bc 91 e4 c7 bc 65 3b 9b 3c 73 84 6c bc
       -0.016376417 -0.024400981 0.01894922 -0.014435875
000150 8e 91 b1 3c d3 da 0a bc 50 9e 94 3c 81 75 e3 bc
       0.021675851 -0.008475023 0.018141896 -0.027765991
000160 5b dd 8f bc a0 89 84 3c 2e aa 1a 3d 7e c2 ac 3c
       -0.017561605 0.016178906 0.037759952 0.021088835
000170 d9 30 53 3d 1e 75 9e 3d 89 c1 ae ba 42 26 41 bd
       0.051560257 0.07737182 -0.0013332824 -0.047155626
000180 68 c8 42 bc c1 01 43 bc 35 48 04 3d ec 5b 7b 3d
       -0.011888601 -0.011902274 0.032295424 0.06136696
000190 ad 50 70 3d 46 13 93 3d 3d ba 9f 3d b4 67 c3 3c
       0.05867069 0.071814105 0.07799194 0.02385316
0001a0 6c 00 15 3b 27 c7 8e 3a e2 f2 6a bc 4b 76 51 bc
       0.0022735847 0.0010893092 -0.014340134 -0.012784551
0001b0 c5 76 e1 bc f3 e9 c2 bc f8 65 13 3d a5 09 dd 3b
       -0.027522454 -0.023793196 0.035985917 0.0067455345
0001c0 45 51 34 3c 3b 70 08 bd 09 39 00 bd 4c b0 64 bc
       0.011005704 -0.033310156 -0.031304393 -0.013958048
0001d0 9c 2c e9 3b 3a 5a 76 bc 15 85 7b 3c 0b 94 84 bb
       0.0071159136 -0.01503616 0.015351553 -0.0040459684
0001e0 05 08 4c 3c 8d 9d 00 39 7b af 86 bc d1 6f af bd
       0.012453084 0.00012265723 -0.016441097 -0.08566249
0001f0 9c b2 ce bd ca 32 53 bd cc 9f c5 3c 32 c1 13 3c
       -0.10092661 -0.051562108 0.024124049 0.009018229
000200 09 5b 6b 3d 72 f4 67 3b 20 c9 4d 3d 8a 06 81 3d
       0.057459865 0.0035393503 0.050240636 0.06300075
000210 4c ac 39 bd 9a 83 0a 3d aa d6 b5 bc b1 c5 ab bc
       -0.04533033 0.03381691 -0.022197086 -0.02096829
000220 aa 3f 2a bd b8 d4 29 bd 7d e0 22 3c 42 b1 f9 bb
       -0.04156462 -0.04146263 0.0099412175 -0.0076200077
000230 45 cf 63 3c 4a 1a f0 bc 55 05 d1 3c fd 9e f4 bc
       0.013904397 -0.02930941 0.025515238 -0.029860968
000240 47 05 85 bc e4 ef 0d 3c 5a 73 2d 3d e8 30 52 3d
       -0.016237868 0.008663151 0.042346336 0.051316172
000250 f9 be b1 3d f9 ec 89 3c 92 23 f5 bc c7 43 d1 bd
       0.08679003 0.01683663 -0.029924188 -0.102180056
000260 8c af 8f bd 87 1d 6f bc c7 52 12 3e d6 aa 66 3d
       -0.07015905 -0.014594442 0.1428939 0.056315266
000270 d8 3d d2 3d 47 16 05 3e 0f d2 e3 3c bd 9f 92 bc
       0.10265702 0.1299678 0.027810125 -0.017898435
000280 85 00 28 bc 2e 70 8b bc c0 db cf bc bd 29 36 bd
       -0.01025403 -0.017021265 -0.02537334 -0.0444734
000290 e9 ad 18 ba a7 d7 34 bc e0 b7 63 bc b8 7f fe 3c
       -0.00058242545 -0.011037744 -0.01389882 0.03106676
0002a0 f7 74 02 3c 75 df a1 bc 55 9b 95 bc c2 aa db bb
       0.007962457 -0.019759873 -0.018262545 -0.0067037055
0002b0 79 52 4a 3c 9b 43 40 bb 05 76 04 bb b4 33 07 3b
       0.012348765 -0.002933717 -0.0020211947 0.0020630183
0002c0 3a 33 46 bb dd f2 11 ba 47 54 77 bd a9 bc f0 bd
       -0.0030242936 -0.00055675005 -0.060383108 -0.11754734
0002d0 ea df ea bc 69 7c c7 bc 04 c8 85 bb da b9 7e 3d
       -0.028671224 -0.024351316 -0.0040826816 0.06218896
0002e0 46 77 52 3d 9f c3 36 3d b0 66 9e bc 6a b6 c2 bd
       0.05138328 0.044620153 -0.019336075 -0.09507449
0002f0 d1 5d 15 be 08 09 b9 bd 22 a2 96 bd 6f 87 05 bd
       -0.1458657 -0.09034926 -0.07355143 -0.032599863
000300 ed fc f5 3c 37 98 f8 3c ad 2c 06 bb 3e d8 e6 bb
       0.030027831 0.03034602 -0.0020473406 -0.007044821
000310 00 9e 08 3a 3c c8 0d bb e7 c2 1a 3c cd e1 5e 3c
       0.0005211532 -0.0021634242 0.009445882 0.01360364
000320 90 9f 15 bd 3d 15 f7 39 2c 99 d5 3c a5 0c 8b 3d
       -0.036529124 0.00047127335 0.026074015 0.06789521
000330 b4 f0 bd bc 47 cf 72 bd 8a 59 35 bd b3 20 12 be
       -0.023186065 -0.059279706 -0.044274844 -0.14270286
000340 15 73 77 bd 9b b8 c4 bd c7 e5 5f bc 21 67 5a 3b
       -0.060412485 -0.09605523 -0.013665623 0.003332563
000350 c0 15 01 be 29 e9 16 bd 36 75 12 be 9e 80 53 be
       -0.12605953 -0.036843453 -0.14302525 -0.20654532
000360 f1 e5 1c be 0d c4 03 be a0 44 9d bd 8f af 1a bd
       -0.1532209 -0.12867756 -0.07679105 -0.037765082
000370 4b c1 a2 bc 26 5b a9 3c b1 fa 7a bc 99 0a e9 bb
       -0.01986756 0.020673346 -0.015318559 -0.007111859
000380 92 86 11 bd 26 40 d7 3c 2b d7 fa 3c f9 7f d8 3c
       -0.035528727 0.026275706 0.030620178 0.02642821
000390 6d ab 27 bc 90 3d 03 bc 28 52 9a bc c6 be 82 3d
       -0.010233742 -0.008010283 -0.018838003 0.063840434
0003a0 08 20 78 bd 23 e7 76 bd 1a b7 f2 bd e4 fd 0d be
       -0.060577422 -0.060279023 -0.1185133 -0.13866383
0003b0 5b 4f 8a bd c5 eb 11 be 49 1d 32 be f4 6f d1 bd
       -0.06753417 -0.14250095 -0.17393984 -0.102264315
0003c0 7d b5 47 be b0 5d 3b be 01 fe 81 be cd 6c 86 be
       -0.19502826 -0.18297458 -0.25389102 -0.26254883
0003d0 c5 51 f5 bd 62 4b 02 be 48 8d e7 bd dd 87 05 bd
       -0.11978487 -0.12724069 -0.11306244 -0.032600272
0003e0 14 46 43 bd 5f 55 68 3c 56 c9 8f bc 02 74 e2 bc
       -0.047674254 0.01418051 -0.01755206 -0.027643207
0003f0 a5 ef cc bb 68 07 4c bc 3b b0 ba ba 95 b6 c9 bc
       -0.006254154 -0.012452938 -0.0014243195 -0.024623195

network.0.bias f4 [128]
000000 ab f7 83 bc e0 c8 94 3d 3f 18 71 bd eb ea 0f 3a
       -0.016109308 0.07264876 -0.058861014 0.00054900226
000010 82 d8 bb bc a4 de 7b 3e 05 9e cb 3d 2b 7f 0e 3c
       -0.022930387 0.2459665 0.09942249 0.008697311
000020 44 87 bf 3d 78 76 0d bd 3a a7 ab 3d 26 83 a7 3e
       0.09351972 -0.03453681 0.08381505 0.32717246
000030 5a 9e c9 ba fd ff 20 3c 36 6a ce bb 49 18 4b bd
       -0.0015382275 0.009826657 -0.0062992824 -0.049583707
000040 a3 52 d6 3c 2b b2 7a bd 0e a5 9d 3d 8c 76 9b 3b
       0.026162451 -0.06120507 0.07697497 0.0047443565
000050 97 29 97 3c 1c 1f 12 bd 0c 71 9e 3d 53 eb 1f bc
       0.018452449 -0.0356742 0.07736406 -0.0097606955
000060 f1 2a 1f be 6d 90 ae 3d dc 1f b0 bd 91 3b 65 3c
       -0.15543725 0.08523641 -0.08599827 0.0139912525
000070 c3 59 2e bd 71 18 ab 3a 82 5e 3b bc 5f db a2 3e
       -0.042566072 0.0013053549 -0.011436107 0.31807992
000080 c3 83 d8 bd 6f 17 c2 bd 6a 94 1d 3d 92 f2 bc bd
       -0.105720066 -0.09477126 0.038471617 -0.09225954
000090 3f 08 3d bd b0 ba 2c 3e 00 1d b6 3d e3 2a a1 3d
       -0.046150442 0.1686809 0.0889225 0.07869508
0000a0 f3 de 37 bd c3 9d a6 3c 04 a5 aa 3d 27 9e 1b 3e
       -0.044890355 0.020338899 0.083322555 0.15197049
0000b0 1d 9a 6d bd c6 24 b2 bc b2 6e 89 3c 92 76 c6 bd
       -0.058008302 -0.02174605 0.016776416 -0.09690584
0000c0 d6 a9 3b bd 35 5c 99 3d d9 55 81 bd f6 77 b0 3c
       -0.045816265 0.0748829 -0.06315202 0.021541577
0000d0 e1 de a6 3d c6 25 b1 3c 75 ec d5 bd 10 ae 98 3c
       0.081479795 0.021624457 -0.10445491 0.018637687
0000e0 96 49 2f bd 7c e5 42 be a8 34 fc bd 4d 71 da 3d
       -0.042794786 -0.19032854 -0.12314731 0.10666142
0000f0 2a ea bd 3d ec 65 2f 3e 96 eb 8c 3e 5b 2a 07 bd
       0.09273179 0.17128724 0.27523488 -0.032999378
000100 2b 49 a9 3d 00 dd 19 3e 11 9e 47 bc bf 00 1f 3e
       0.08265909 0.15025711 -0.012183682 0.15527628
000110 29 c8 82 3d 39 dd 41 3e d1 3d 02 3e 86 86 1a 3e
       0.06385834 0.18932046 0.12718894 0.15090379
000120 14 cf ae 3d bd 78 8c 3d 82 c4 b6 3d 46 92 e2 3c
       0.08535591 0.068589665 0.089242 0.02765764
000130 32 0f 19 bd 4c bc 96 3d 37 b0 38 3c 12 30 3d 3e
       -0.037368007 0.073601335 0.011272482 0.18475369
000140 35 a6 83 3d 30 00 08 bd 0e b0 78 bd 27 dc 4f 3d
       0.06428186 -0.033203304 -0.060714774 0.050747063
000150 66 3d a6 bd e9 4c 9b 3e 2d 97 7c 3d a7 39 30 3d
       -0.081171796 0.30332115 0.06166761 0.04302373
000160 0e 44 90 3d 9b 27 05 3e b0 a6 13 be 33 24 f4 bc
       0.070442304 0.1300339 -0.14419055 -0.029802417
000170 cc f2 26 3e 33 6b 91 bd 00 b0 93 3d e2 91 1b 3c
       0.16303557 -0.07100525 0.07211304 0.00949523
000180 f3 43 e3 3d bb b0 01 bd 77 2b 51 3d 97 0f ed 3c
       0.11096945 -0.031662684 0.051066842 0.028938098
000190 72 80 fc 3d 1d 90 36 3e 8f 9e 44 bd 77 ca 07 be
       0.123291865 0.17828412 -0.048002776 -0.13260828
0001a0 59 4a bc bb 3d cc 90 bd af 8d 24 bd f2 0b 64 bd
       -0.0057461676 -0.07070205 -0.040174183 -0.055675454
0001b0 3f b6 fe bb 97 4b ca bc 01 34 14 3e b8 bb 22 3e
       -0.0077731903 -0.024694247 0.14472963 0.15891922
0001c0 64 5c 79 3d a6 cd 59 3e 9e 2d 10 bd 2e b5 85 3d
       0.060879126 0.21269855 -0.035199754 0.06528698
0001d0 8e 2e 7d 3d e5 82 9a 3d 2d f1 96 3c 9a de 0e bd
       0.061811976 0.075444974 0.018425548 -0.03488026
0001e0 6c e0 b8 bc 9d 18 4b bd 54 18 16 3b 6e e0 b1 bd
       -0.02256795 -0.04958402 0.0022902684 -0.08685385
0001f0 99 c9 83 3d 6a a2 9f 3b 19 9d 7f bd 6f 6c be 3d
       0.06434936 0.004871656 -0.06240568 0.09298026

network.2.weight f4 [64, 128]
000000 f1 d9 24 bd fd 90 c8 3c c5 0f 96 3e 00 29 55 3d
       -0.040246908 0.024483198 0.29308906 0.052041054
000010 13 fb f4 3d 23 7e 7a bc b7 7a 30 bd bc 39 16 3d
       0.11961951 -0.015288862 -0.04308578 0.036676154
000020 c2 18 af 3c 9d 45 66 bd 9f 32 f0 3c 4d 8f 4c be
       0.02137411 -0.056218732 0.029321013 -0.1997654
000030 60 34 29 bd 78 f4 09 3d 2d 9e 49 3d 0f 3c 17 3e
       -0.041309714 0.03368041 0.049223114 0.14769004
000040 19 ad 36 3d a2 f5 39 3e 29 99 86 3b 34 b0 95 3d
       0.044598673 0.18160108 0.0041076136 0.07308999
000050 fe 5d c1 bb b8 30 3a be c9 40 0e 3d 06 69 18 3e
       -0.0059010973 -0.18182647 0.034729753 0.14883813
000060 d9 d0 2c 3c 92 4a f1 bb 92 fa 82 3d 8a 74 0b 3e
       0.01054784 -0.007363626 0.06395449 0.13618675
000070 70 b6 32 3c 03 65 1f 3e 11 ae b1 bc a4 1c 3e 3e
       0.010907754 0.15565877 -0.021689447 0.18565613
000080 c3 9e cb 3d b0 d3 14 3d 9b 06 8c 3c 6e d0 3e be
       0.09942391 0.036334693 0.017092993 -0.18634197
000090 39 c3 51 3e c8 86 4f 3d 8f 8b 4d 3d 06 50 2a 3e
       0.20484628 0.050665647 0.05018192 0.16632089
0000a0 9b 63 cd 3d 5a ac eb bc a6 dc e6 bb 5e 0a 06 be
       0.10028764 -0.028768707 -0.0070453463 -0.13089892
0000b0 8b 17 03 3e c8 ad 9a bd 5e cd 3e bd 4a 1b 53 bd
       0.1280195 -0.075526774 -0.046582572 -0.051539697
0000c0 4b cb 2a 3d d5 5d e8 bd 5c 9f da 3c 25 74 61 bc
       0.04169778 -0.11346022 0.026687317 -0.013760601
0000d0 12 30 0c be c1 99 54 3d fa 4e 21 3e 2a ae 21 bd
       -0.13690212 0.051904444 0.15752783 -0.039472736
0000e0 bc 4a e4 bd 3d c3 61 3e 74 d6 73 bd 89 b5 98 3d
       -0.11147067 0.22047134 -0.05953069 0.074565
0000f0 a1 6e 08 3e 10 2d c7 bc 34 03 a7 bd d7 d8 75 3d
       0.13323452 -0.02431348 -0.08154908 0.060021248
000100 1f 22 40 3b 7f 85 26 bd 7e 24 e4 bc 79 ed 69 be
       0.0029317213 -0.040654656 -0.027849432 -0.22844495
000110 4e 4c 41 3d 88 1d d5 bd 8b 52 3c be 2d 42 06 3d
       0.04719191 -0.10406023 -0.18390863 0.032777954
000120 f7 6f 3c 3e 22 11 bd bd dc a4 c5 3c 40 3e e6 3d
       0.18402086 -0.092317834 0.024126463 0.11242342
000130 99 3c db 3c 60 10 02 3e 5b fa 8a 3d ef aa 2d 3d
       0.026762294 0.12701559 0.06786033 0.042399343
000140 b9 ac c2 3d 80 2a 63 3d d5 07 15 bd f0 a3 c3 bd
       0.095056005 0.055460453 -0.036384422 -0.09552753
000150 6b 24 55 3d 58 86 7d bd 46 b5 35 bb d2 fe d9 3d
       0.052036684 -0.0618957 -0.0027726456 0.10644306
000160 7e 41 b5 bd ba 86 1e 3e 52 a3 a8 3b 16 0a f8 bd
       -0.08850382 0.15481082 0.0051464224 -0.12111299
000170 90 2c 48 3e d7 2d 5b 3d 66 09 d0 3d 3b a0 df 3d
       0.19548249 0.053510513 0.101580426 0.109192334
000180 e7 6c 35 3c d4 f3 5f 3d 32 bc 6d 3d 54 02 93 bd
       0.011073328 0.054675892 0.058040805 -0.071781784
000190 a4 76 ef bd 94 8d eb bc 9f 4c c0 3d 87 cc f3 3d
       -0.11692551 -0.028754033 0.09389614 0.11904245
0001a0 3a 7d 42 bd 1a 79 c6 bd 8f 28 94 3b e9 1d 18 3d
       -0.047482707 -0.09691067 0.0045214365 0.0371379
0001b0 dd fb b7 bd 9d a4 0a 3d 6e 34 47 3b 87 a7 67 3c
       -0.08983586 0.033848394 0.003039624 0.014139063
0001c0 b0 37 7b 3d 54 e9 4e 3e a1 f2 4a 3c c5 d2 48 bc
       0.061332405 0.20206195 0.012386949 -0.012257283
0001d0 00 26 0e 3e 5a 21 82 3e 6d 0e 32 be 52 d7 cc 3c
       0.13881683 0.2541607 -0.17388315 0.025005016
0001e0 d3 94 50 3d 54 8d 0f 3d d7 d6 4b 3d 9d f3 a3 3d
       0.05092318 0.03504689 0.049765434 0.0800545
0001f0 cc 81 4d bd 83 50 d5 bd 33 b1 a6 3c 74 ec 0d bd
       -0.050172612 -0.10415747 0.020348167 -0.034649327
000200 e4 5d 0d 3e ac 1c 2d 3e d8 a7 8b 3d b6 9d a3 bd
       0.13805348 0.16905469 0.06819123 -0.07989065
000210 62 d6 21 bc cb bc 55 be 0f b7 4e 3e f7 5d 3b bd
       -0.009877773 -0.208728 0.20187019 -0.04574391
000220 a3 42 85 3d 05 73 75 3e 91 d6 c5 3c 22 5d de be
       0.065068506 0.23969658 0.024150165 -0.4343043
000230 af 7f 99 bd e4 e8 8f bd 89 e4 18 3e b8 33 75 3e
       -0.07495057 -0.07026842 0.14930929 0.2394551
000240 93 71 15 be 6d 9c 00 3e 57 2c 95 3e 4d 71 b5 bd
       -0.14594106 0.12559672 0.2913539 -0.08859501
000250 8c 8b 85 3d 3a 49 92 be 19 91 03 bc e9 79 e3 3d
       0.06520757 -0.28571492 -0.008030199 0.11107237
000260 40 66 73 be 92 91 d4 3e 7f 1f ba 3d 1a e9 c1 3e
       -0.23769474 0.4151731 0.09088039 0.37873155
000270 10 07 76 3e 38 f7 dd 3d 77 34 14 3e ad f1 06 3e
       0.24026132 0.10838169 0.14473139 0.1317813
000280 af 1d ac 3e 59 27 86 bd a5 e6 84 3d 45 53 5d 3c
       0.33616397 -0.06550474 0.064893045 0.013508623
000290 9f 52 bb 3e c8 2b 08 bc bc ea 69 bd 9f 42 bb 3d
       0.36586472 -0.0083112195 -0.057108626 0.09143566
0002a0 16 51 8f 3c 29 b2 09 be cb b1 b1 3c 2b 94 96 bd
       0.01749472 -0.13446869 0.021691224 -0.073524795
0002b0 77 b6 0e be 4c fc a7 be 61 5c ec 3d d3 7e a0 3d
       -0.13936792 -0.32809675 0.115410574 0.0783669
0002c0 a8 45 af 3d 20 e2 03 3f 61 4b c5 bd 6f a8 7c bb
       0.08558208 0.51516914 -0.09633518 -0.0038552543
0002d0 f1 c8 27 be f4 fb 5e bc a2 cd fe bd d8 1b 07 3c
       -0.16385247 -0.013609875 -0.12441565 0.008246385
0002e0 24 b1 28 3e 5e 71 6d be e3 21 6c 3c 6d d5 1a be
       0.16473824 -0.23187777 0.014412376 -0.15120478
0002f0 3b ac e1 3d e0 97 06 be 42 c9 00 3e f0 5b 10 3e
       0.110191785 -0.13143873 0.12576774 0.14097571
000300 8e df b5 be 1d a6 a0 3e 79 2a 87 bd dd be 0a bf
       -0.3552212 0.31376734 -0.06599898 -0.54197484
000310 10 70 4a 3e 67 77 02 3e 5a 7f 0e 3b 02 e4 f2 3d
       0.19769311 0.12740861 0.0021743388 0.11859895
000320 56 fa b9 3d 7e 3b 92 3d d8 2c f9 bd 82 f6 4e 3e
       0.09080951 0.071402535 -0.121667564 0.20211223
000330 33 88 8d be d4 63 77 bd a0 ef 4e bb f6 6c de bd
       -0.27642974 -0.060397938 -0.0031575933 -0.108606264
000340 97 62 8e 3d 95 48 48 3d 84 4f 46 3d b9 72 80 3e
       0.06952398 0.048897345 0.048415676 0.25087526
000350 43 6e d2 bd b9 54 a4 3e 18 ee c0 3e 7b 57 33 3e
       -0.10274937 0.32095888 0.3768165 0.1751384
000360 fc 2c 92 be 37 e9 e7 3d 9b 7e 9c 3e 89 96 2c 3e
       -0.28549945 0.11323779 0.30565342 0.168543
000370 9f 02 69 3e 0d 71 11 3e 78 0e 73 be 15 e7 b7 be
       0.22754906 0.14203282 -0.23735988 -0.3591849
000380 71 9e 74 be 34 ab 28 be b1 dd b9 3e 33 7e 13 3b
       -0.23888566 -0.16471559 0.3630195 0.002250564
000390 91 6a 9f 3d a1 b6 89 be 78 97 97 bd 3a 49 c0 3e
       0.07783998 -0.26897147 -0.07401937 0.37555867
0003a0 f6 ea 91 3d 6f b8 d1 be 99 db d0 bd c1 07 00 be
       0.07124893 -0.40961024 -0.10198135 -0.12502958
0003b0 01 bb 7b 3e 12 2f e3 3d a0 56 46 3e 32 9c 5f be
       0.24583055 0.11092962 0.19368982 -0.21836928
0003c0 aa 5c 46 be 81 57 9e 3e f2 85 ec 3d f1 b2 43 bd
       -0.19371286 0.30926135 0.115489855 -0.047778074
0003d0 c1 36 a1 3e 8f 09 4b 3e 29 39 9c 3d d2 18 9f 3d
       0.31487086 0.19827865 0.0762809 0.07768406
0003e0 da cb 83 bd a9 56 05 bd a2 04 13 3e d8 5c 63 3e
       -0.06435366 -0.03255335 0.14357236 0.22203386
0003f0 4c 47 a2 be fc 26 b3 be d2 a4 b2 be 57 d2 34 3e
       -0.3169502 -0.3499068 -0.34891373 0.17658363

network.2.bias f4 [64]
000000 93 8f 8e bc 3b ab ef ba 13 5a 9a 3e 25 ce e4 3c
       -0.017402446 -0.0018285284 0.30146846 0.027930329
000010 f1 8e 62 bd 79 3d 05 bd c9 ff 6b 3b a4 57 50 3e
       -0.0553121 -0.032529328 0.0036010614 0.20345932
000020 e4 aa 6f 3e 46 ef 32 3d 77 db 9c 3e 76 5c 51 3e
       0.23405033 0.04368522 0.30636188 0.20445427
000030 1f c4 b6 bc 2f d1 b4 3d b8 70 ae bd e3 78 56 bd
       -0.022310315 0.08828961 -0.08517593 -0.05236138
000040 8d 97 a3 3d 01 d4 b3 3d ef de 1b 3c d4 70 82 bd
       0.079878904 0.08780671 0.009513601 -0.063691765
000050 22 06 47 bc 4b a0 80 3d d0 bf 10 3d 2d 3a cc 3d
       -0.012147458 0.062805735 0.035339177 0.09972034
000060 c1 aa 46 3e 72 93 0e 3c a8 0d bb 3d f0 ef 85 3d
       0.19401075 0.008702146 0.09133464 0.06539905
000070 22 91 2e 3d fb e1 78 3e fd be 8f 3e 0b 19 fe 3c
       0.04261888 0.24304955 0.280754 0.0310178
000080 3b 78 97 3c dc 40 83 3e 3d 8c b7 3d 35 e8 9f bb
       0.018489948 0.2563542 0.08962295 -0.004879976
000090 90 6a aa 3d ea 0d ef 3d c3 c5 dc 3d 0f 83 c3 bd
       0.083211064 0.11672576 0.107799076 -0.09546482
0000a0 73 a0 94 3e 31 e9 ee 3c ce 53 7a bc 8e 84 5b bc
       0.29028663 0.029163929 -0.01527877 -0.013398303
0000b0 9f a3 d7 3d 30 79 4f 3e 8a 53 06 3d 52 5a 59 bd
       0.10529255 0.20261073 0.032794513 -0.05306465
0000c0 43 d7 6e 3d 58 5d 3a 3d 38 01 91 3e d1 d3 64 3c
       0.05831076 0.045499176 0.28321242 0.013966517
0000d0 24 14 ef 3d 78 21 9e 3d 23 aa ff bb db be 03 3e
       0.116737634 0.077212274 -0.0078022643 0.12865774
0000e0 ea aa f8 bc 9f cc be 3d f8 c4 e4 3b a6 08 0c 3e
       -0.030354936 0.09316372 0.0069814883 0.13675174
0000f0 9d e1 14 3e f4 e5 aa 3e 32 aa ea 3d bd c6 d0 3d
       0.1453919 0.33378565 0.114582434 0.10194156

network.4.weight f4 [10, 64]
000000 dd 5c 01 3f 75 31 7f 3f 1c b0 d1 be 9b ec b5 3e
       0.50532323 0.9968484 -0.40954673 0.35532078
000010 43 ba 6f 3d 78 22 9d 3e 80 dd 8d be d6 55 c1 be
       0.058527242 0.3069036 -0.27708054 -0.377608
000020 27 5a 2f bd eb 2c 13 be ec fb a1 3e 3f e7 4d be
       -0.042810585 -0.14372604 0.31637514 -0.20107745
000030 34 bd cc be d7 4c 88 be 3a 55 21 bd 33 74 31 be
       -0.399881 -0.26621124 -0.03938792 -0.17329483
000040 f4 e5 47 be c0 d4 23 3f 8b 6c 0f be ba 91 b6 39
       -0.19521314 0.63996506 -0.1400625 0.0003482232
000050 22 7a a1 3c 37 29 01 bf 6c 82 32 3e 33 a3 87 be
       0.019711558 -0.50453514 0.17432564 -0.264917
000060 5c a5 7e be 71 7f ce bd d8 bf 2a 3f 70 68 86 3c
       -0.24867767 -0.10082901 0.6669898 0.016407222
000070 18 c2 53 3f 39 2c 30 be 7f 9f eb be 34 e4 13 3e
       0.8271804 -0.1720437 -0.46020123 0.14442521
000080 a2 ac d8 be e8 21 01 be 77 4e 6b be 68 e3 39 be
       -0.42319208 -0.1261059 -0.2297915 -0.18153155
000090 ed e8 8f be 51 77 e5 be b7 ec e9 be ab f4 0a 3f
       -0.28107396 -0.44817594 -0.45688412 0.54279584
0000a0 8d 2f c9 be 92 3e 1a bf 7a 51 c3 3a cf 2c a1 be
       -0.3929409 -0.60251725 0.0014901601 -0.314795
0000b0 c4 83 e4 bc 65 76 38 bd f5 08 ac be 04 f4 7d 3f
       -0.027894862 -0.045034785 -0.33600584 0.99200463
0000c0 e8 96 ac 3c 87 c3 e6 bd d1 1c 35 be 70 af 91 3e
       0.021068051 -0.11267763 -0.17686774 0.2845416
0000d0 3f ff bc be 6e 6a f8 3e 8d c0 eb bd e6 6a 9f 3e
       -0.36913487 0.485187 -0.115113355 0.31136245
0000e0 b8 42 44 be 0c 6a b9 3e d8 a7 76 be 52 0e 39 3f
       -0.19166076 0.3621372 -0.24087465 0.72287476
0000f0 e4 bf 12 bf ed ea 10 bf 77 47 26 bf 0b 4d b9 3c
       -0.5732405 -0.5660847 -0.64952797 0.022619745
000100 54 a8 78 3e fb c5 de be c5 56 f9 3e 93 67 98 be
       0.24282962 -0.43510422 0.48699012 -0.2976652
000110 1a b1 b8 bc 92 81 0a 3c 59 af af 3e 6e 02 7c be
       -0.022545386 0.0084537435 0.34313467 -0.24610302
000120 7e e7 36 be cd ad dc 3d 8a 61 d8 be 49 00 20 3f
       -0.17861745 0.10775337 -0.42261916 0.62500435
000130 a3 61 e8 3d 19 6f 0c 3f dd 87 3f be f0 8e a2 3c
       0.11346748 0.5485702 -0.18704171 0.019843549
000140 3a 0e c5 be 98 f9 c3 bd d3 2e 2d 3f 86 99 55 bd
       -0.38487417 -0.095690906 0.67649573 -0.052148364
000150 d2 5b 0e 3f 3d 6a d4 3e cb 5c a5 3f 3f c8 48 bd
       0.55608857 0.41487303 1.2918943 -0.049019095
000160 0d 3c f2 bd b7 f0 5a bc 04 c8 bf be a6 58 eb be
       -0.1182786 -0.013363055 -0.37457287 -0.4596607
000170 73 f6 d7 be 3d c8 63 bf da e0 e4 3d d2 17 b5 be
       -0.42180213 -0.88977414 0.111756995 -0.35369736
000180 74 7c f4 3e 6b 3e e9 3e 53 e8 0e bf 56 c4 11 be
       0.477512 0.45555434 -0.5582325 -0.14235052
000190 e3 4f 2f 3c f6 89 3c 3f cb 1e 59 3f d8 bd 13 3e
       0.010700199 0.7364801 0.8481261 0.14427888
0001a0 49 3c 92 be a2 23 63 be 5f ba 7c 3e bc 8b 85 3d
       -0.2856162 -0.22181562 0.2468047 0.06520793
0001b0 2d 7d b4 3e ff b2 0d bf 82 28 3a be 24 ef ee 3d
       0.35251752 -0.5535125 -0.18179515 0.11666706
0001c0 a4 4f e6 3d 39 4f b4 bd a6 5a ea bb 47 6a b5 3d
       0.11245659 -0.08804173 -0.0071519194 0.088581614
0001d0 40 de b4 3d dc 65 ad bd 94 e5 c6 bb de 55 f5 be
       0.08831453 -0.08466694 -0.0060698483 -0.47917074
0001e0 d3 d7 49 3e e8 19 6f be 26 b0 c1 be 55 d5 88 be
       0.19711237 -0.23349726 -0.37829703 -0.2672526
0001f0 1f 69 a6 3e e1 e9 11 3e 49 0b 14 3f 32 4f 2e bf
       0.32502076 0.14249374 0.5782972 -0.6808959
000200 0f aa 07 3e 4c 88 1c 3f a2 a7 ce be 1a d4 97 3e
       0.13248466 0.6114547 -0.4036227 0.29654008
000210 e7 4b b0 bd 82 1e 9e be 0e d5 cf 3d b0 58 14 3f
       -0.08608227 -0.3088265 0.10148059 0.57947826
000220 73 f1 a0 3e b7 7a 7e 3e 88 b6 84 be 54 f3 70 3f
       0.3143421 0.248515 -0.2592051 0.9412129
000230 54 55 c8 be 9e 7f 83 be 3e 00 1a 3e 31 f6 bb bd
       -0.391276 -0.25683302 0.15039155 -0.09177817
000240 e0 2b 4b be b7 ee a0 be a2 6e d1 be 47 df 2f be
       -0.19840956 -0.31432125 -0.4090472 -0.17175017
000250 75 ea eb ba f3 aa 39 3f f5 99 80 bd 4b 38 8d 3e
       -0.0017998951 0.7252647 -0.06279365 0.2758201
000260 a2 e4 02 3f da 50 ac 3d 51 f0 7d 3e db 76 36 3f
       0.51130116 0.08413859 0.24798705 0.7127511
000270 4f e8 19 bd 05 bf 8e 3e ae 74 3f bf 28 0b 0f bf
       -0.037575062 0.2788011 -0.74787414 -0.558764
000280 70 d9 15 3f ee 52 24 be 68 cb 64 3e a6 81 b2 bc
       0.5853491 -0.1604726 0.22343218 -0.021790337
000290 8c 27 5f be 0c a5 a4 be 8d ae 4b 3e 78 b0 e0 be
       -0.2179243 -0.3215717 0.19890805 -0.43884635
0002a0 a8 2a 0f 3f bb 91 3f be e1 9a e4 3d 49 37 a1 bd
       0.55924463 -0.18707936 0.11162353 -0.07871873
0002b0 92 70 25 bf 12 e7 04 bf ba 30 27 bf d3 5f d8 3e
       -0.64624894 -0.51915085 -0.65308726 0.42260608
0002c0 3e 48 47 bf 4e e3 11 be 68 2e 30 bf 6a 16 09 be
       -0.7784461 -0.14246866 -0.6882081 -0.13387457
0002d0 69 0f 22 be b2 66 c1 bc 73 f0 d5 3d 86 f2 27 bf
       -0.15826191 -0.02360854 0.10446253 -0.65604436
0002e0 0b 99 c0 be 04 99 4c 3f 0a 83 8f be 1d 1b 55 3f
       -0.37616763 0.79920983 -0.28029662 0.83244497
0002f0 a9 38 25 bf 0b a3 34 3f 2e bc 76 3e 21 eb f5 be
       -0.6453958 0.70561284 0.24095222 -0.48030952
000300 aa 74 a1 3e 6a 74 c8 be af 52 03 bf c9 55 c6 bd
       0.3153432 -0.39151317 -0.5129804 -0.09684331
000310 45 5b 83 3d 77 42 8a 3e ba 46 d3 3e d4 9e 55 3e
       0.06413893 0.27003834 0.41264898 0.2086137
000320 c2 80 2b 3f 39 8f 04 bf dc 3f bd 3e 42 6f 1f bf
       0.66993344 -0.5178104 0.36962783 -0.6227914
000330 1b 9e 09 3f 8e 4d a1 3e 00 84 80 be 8d 26 09 3e
       0.53756875 0.31504482 -0.25100708 0.13393612
000340 37 f8 7b be ec 09 c6 be 63 e7 47 bd e3 31 24 3e
       -0.24606405 -0.38679445 -0.048804652 0.16034655
000350 ff eb e9 be f5 d1 72 3f b3 16 87 bf 27 34 c2 3d
       -0.45687863 0.9485162 -1.0553802 0.094826035
000360 61 a7 92 be a5 b0 03 be 07 8c 32 3e f8 ed a2 be
       -0.28643325 -0.12860353 0.17436229 -0.3182218
000370 4a da 0d 3d 4b cb 81 3f 9a f7 ee 3d a5 16 f5 3e
       0.034632005 1.0140165 0.1166832 0.4786884
000380 66 8d 1a 3f 33 50 01 bf dd bc 0e 3f 81 87 2a 3e
       0.60372007 -0.50513 0.5575693 0.16653253
000390 7b e4 78 be d2 0e 4d 3f a7 f0 76 3e 5f 01 6a 3e
       -0.24305908 0.8010074 0.24115239 0.22852086
0003a0 86 c8 e3 be cd 2c b2 bc a8 3e 60 bd b5 52 13 be
       -0.44488925 -0.021749878 -0.054747254 -0.14387019
0003b0 a4 2e 5c be 6e a0 69 bf b7 12 07 3f c4 7f 0b bf
       -0.21502167 -0.9126042 0.5276293 -0.5449183
0003c0 de 73 a3 be 94 3d d2 bd ff 4e 4b bf 3c b9 50 be
       -0.31924337 -0.10265651 -0.79417413 -0.20383161
0003d0 8a e6 d6 be f2 4a d5 3d 6a 77 43 3d e6 e9 c2 be
       -0.41972762 0.10414685 0.047721304 -0.38069075
0003e0 cd 80 54 3e 91 18 0b bf b1 1a 42 3f c5 3e 37 bf
       0.20752259 -0.5433436 0.7582198 -0.71580154
0003f0 02 a5 20 bf a4 b8 bd be 32 97 2b 3f 7e d1 d5 3e
       -0.6275178 -0.37054932 0.6702758 0.41761392

network.4.bias f4 [10]
000000 0a 0d 93 be 52 b3 b0 3d 77 0c bb bd ac bc ae bd
       -0.28720886 0.08627953 -0.09133237 -0.0853208
000010 f8 f5 b0 3d 31 0d 8c 3e b1 30 1b be c1 c4 fc bd
       0.08640665 0.27353814 -0.15155293 -0.12342215
000020 79 8f 8e 3c 4e e8 88 3c
       0.017402397 0.016712334
