Pytorch/CampusX/models/fashion_D_p=0.3_BN_epochs_100.model (torch, 446999 bytes, 14 tensors)

network.0.weight f4 [128, 784]
0	0x3cc6c436	0.024263483
1	0x3cd755aa	0.026285965
2	0xbbf95935	-0.0076095113
3	0x3cc632e9	0.024194198
4	0x3c814e6b	0.015784463
5	0x3d70e281	0.05880976
6	0x3d846bed	0.06465898
7	0x3e144b8e	0.14481947
8	0x3d200b0e	0.039073043
9	0xbd927cf3	-0.071527384
10	0x3cb91ae0	0.022595823
11	0xbceca9e3	-0.028889602
12	0x3db28c39	0.087181516
13	0xbcd5b464	-0.026086994
14	0xbd1a3514	-0.037648275
15	0x3e01b7b2	0.1266773
16	0x3d85519b	0.06509706
17	0x3d99dd94	0.07512966
18	0xbce77692	-0.02825478
19	0x3d48654d	0.048924733
20	0x3d8fc75c	0.07020447
21	0x3db2c7c5	0.08729509
22	0x3d1bf18b	0.03807215
23	0x3d24c9ac	0.04023139
24	0xbcc636bb	-0.02419602
25	0xbc528b6c	-0.012850624
26	0xbbd9d312	-0.006647476
27	0xbc922a26	-0.017842364
28	0x3b787a26	0.0037914603
29	0xbcf19ee7	-0.029494716
30	0x3cbef5ca	0.02331056
31	0xbd01b685	-0.031668205
32	0x3d31306f	0.04325908
33	0x3c8684a2	0.016420666
34	0x3acb7ebe	0.0015525443
35	0xbd3025ad	-0.04300468
36	0xbc2e02db	-0.010620798
37	0xbd05f061	-0.032699946
38	0xbc6d18b9	-0.014471226
39	0x3cfe28e4	0.031025358
40	0xbcd53d29	-0.02603014
41	0x3d0a0fb1	0.03370637
42	0x3d89ea38	0.06734127
43	0xbc8af3c1	-0.016961934
44	0xbd28cbff	-0.04121017
45	0x3c9261e5	0.017868945
46	0x3d6bc059	0.057556484
47	0x3de0e2e2	0.109807745
48	0x3d3c17d5	0.045921165
49	0xbd709522	-0.058735974
50	0xbd87d863	-0.06633069
51	0xbd1f87a6	-0.038947724
52	0xbd3570de	-0.04429709
53	0x3cb9de5a	0.022689033
54	0x3c3967e4	0.011316273
55	0x3c7fce11	0.015613095
56	0x3c307689	0.0107704485
57	0x3a6abc7d	0.00089544785
58	0x3ca0e8a3	0.01964218
59	0xbd0951f2	-0.033525415
60	0xbccbdb5d	-0.024884874
61	0x3c22aa89	0.009928354
62	0xbd592073	-0.05300946
63	0xbb4de55e	-0.003141723
64	0x3dc820c2	0.09771873
65	0xbcb57614	-0.02215103
66	0x3c877204	0.01653386
67	0x3c85c43c	0.016328923
68	0xbd13d699	-0.03609333
69	0x3a1515d8	0.0005687154
70	0x3d3e7e59	0.046507213
71	0xbd4eb579	-0.050466035
72	0x3d6caa10	0.05777937
73	0x3d1954e1	0.037434462
74	0xbb9c2924	-0.0047656465
75	0xbcef5821	-0.029216828
76	0x3c63393b	0.013868625
77	0x3da054ec	0.078286976
78	0xbda1c763	-0.07899358
79	0xbcd68ff9	-0.026191698
80	0xbca0f0b2	-0.019646022
81	0xbcb616ac	-0.022227608
82	0x3c81daad	0.015851343
83	0xbc3cf3d7	-0.011532745
84	0x3ca51eab	0.020156225
85	0xbbc52a8c	-0.006017035
86	0x3c80e29e	0.01573306
87	0xbd43f34c	-0.047839448
88	0xbcd7e1d4	-0.0263528
89	0x3d197213	0.037462305
90	0xbae383fd	-0.0017358061
91	0x3d70a3eb	0.058750074
92	0x3d538086	0.05163624
93	0x3c2346b7	0.00996559
94	0xbd9ef62a	-0.07761796
95	0x3d52c925	0.051461358
96	0x3d02515b	0.031815868
97	0x3ce1ff10	0.027587444
98	0x3d82e5a1	0.063914545
99	0x3d04ef1e	0.032454602
100	0xbbc48a23	-0.0059979125
101	0x3d2e3bff	0.042537685
102	0x3d99621b	0.07489415
103	0xbb8b5e31	-0.004253172
104	0xbcbf36c5	-0.023341546
105	0x3c194c4a	0.009356568
106	0xbc9d5c54	-0.019209065
107	0xbd016440	-0.031589746
108	0xbceff550	-0.029291779
109	0xbc10b792	-0.008832829
110	0x3d1b1553	0.037862133
111	0x3ba82f6b	0.005132606
112	0x3c3784b3	0.011201072
113	0xbcd83504	-0.026392467
114	0xbcd8f65e	-0.026484665
115	0xbcff5ba1	-0.031171622
116	0x3ce10c18	0.027471587
117	0xbbfb74fb	-0.0076738573
118	0xbb418a64	-0.002953195
119	0xbd1b30ed	-0.037888456
120	0xbcfcc3f4	-0.030855156
121	0xbdce79b6	-0.10081808
122	0xbd24fb1a	-0.04027853
123	0xbd82d93e	-0.06389092
124	0xbd5c83fe	-0.053836815
125	0xbcd3336e	-0.02578136
126	0xbcf7fa75	-0.030270794
127	0x3a66ff1c	0.0008811818
128	0xbcbbe2f2	-0.022935364
129	0x3c857f95	0.016296187
130	0xbc5cc2dd	-0.013474193
131	0xbd35f4ff	-0.0444231
132	0xbd942373	-0.07233324
133	0x3db18072	0.08667077
134	0xbda632cd	-0.08115158
135	0x3ce9717f	0.028496502
136	0xbbb2e1a5	-0.005459028
137	0xbc5be2ef	-0.013420804
138	0x3c9e64c1	0.019335153
139	0xba90c100	-0.0011043847
140	0x3c5e6487	0.013573772
141	0xbcefae04	-0.029257782
142	0x3c445345	0.011982744
143	0xbd2d3867	-0.042290118
144	0x3cb63334	0.022241212
145	0x3d5fdba9	0.054652844
146	0x3cf6d38b	0.030130168
147	0x3de1c1cb	0.11023291
148	0x3d513ad8	0.05108151
149	0xbc1a11bb	-0.009403641
150	0xbcafaadc	-0.021443777
151	0x3bc2b60a	0.005942111
152	0x3aea2685	0.0017864263
153	0x3afa72b8	0.0019107675
154	0x3cdc860c	0.026919387
155	0x3dbf1b87	0.09331422
156	0x3dda766c	0.106671184
157	0xbd2afe09	-0.041746173
158	0x3cc6d50d	0.024271512
159	0x3c535977	0.012899748
160	0x3cbb7677	0.022883637
161	0x3cc62695	0.02418832
162	0xbcfc5568	-0.030802444
163	0xbd69ab16	-0.057047926
164	0x3d600b77	0.054698434
165	0x3ca87e18	0.020567939
166	0xbc012996	-0.00788345
167	0x3d04ec66	0.03245201
168	0x3c0e96db	0.008702959
169	0xbc9b5ad8	-0.018964216
170	0xbcd1af22	-0.025596205
171	0xbd47509a	-0.048660852
172	0x3c5d8e41	0.0135226855
173	0xbc1fae42	-0.009746136
174	0xbd60e890	-0.05490929
175	0x3cded452	0.027200852
176	0xbd94a99c	-0.07258913
177	0x3df7dc97	0.12102621
178	0x3bf13cbb	0.007361976
179	0xbc914eb9	-0.017737733
180	0xbd09a851	-0.033607785
181	0xbd329876	-0.04360243
182	0xbd83ca12	-0.06435026
183	0xbb2a1806	-0.002595426
184	0x3da6c795	0.08143536
185	0x3d0fee0c	0.03513913
186	0x3d6318b5	0.055443484
187	0x3d8ee8dd	0.06978009
188	0x3c11e344	0.008904282
189	0xbd10041d	-0.035160173
190	0x3aac66c2	0.0013153183
191	0xbd6c7b0c	-0.057734534
192	0x3d2e09bb	0.04248975
193	0x3db91827	0.0903781
194	0x3cabe2e6	0.020982217
195	0xbbc14203	-0.005897762
196	0x3b2fb996	0.0026813499
197	0xbbd180dc	-0.006393535
198	0xbc34d2bb	-0.01103657
199	0xbd4e765b	-0.05040584
200	0xbced3544	-0.028956063
201	0xbbb3a0f5	-0.005481834
202	0xbc7c9fb7	-0.015418938
203	0x3c937bad	0.01800331
204	0xbd5c4ea0	-0.05378592
205	0x3d6fc196	0.058534227
206	0xbc2be314	-0.010491151
207	0xbbbd8704	-0.0057839174
208	0xbd6f92a9	-0.058489475
209	0x3d6e388b	0.058159392
210	0x3d82121e	0.06351112
211	0xbc33b0c9	-0.010967442
212	0x3d0b04b7	0.033940043
213	0x3bcf6bbd	0.006329982
214	0xbce43387	-0.027856601
215	0x3d9a570d	0.07536135
216	0x3d861d75	0.06548587
217	0x3c0e1e06	0.00867415
218	0x3d855963	0.0651119
219	0x3b528310	0.0032121576
220	0xbca44021	-0.02005011
221	0x3d23179e	0.039817445
222	0x3d30b581	0.043141846
223	0xbb9a1a02	-0.0047028074
224	0xbd015c5d	-0.031582225
225	0x3c3e88cd	0.011629296
226	0x3c479f2a	0.012183944
227	0xbd2d85c9	-0.042363916
228	0xbd2bed3e	-0.0419743
229	0xbd783df8	-0.060605973
230	0xbd017097	-0.031601515
231	0xbd145c1a	-0.036220647
232	0xbd805b08	-0.06267363
233	0xbc227505	-0.009915595
234	0x3d28df39	0.041228507
235	0x3d3b07ff	0.045661923
236	0xbcea5104	-0.028603084
237	0xbdc22fc2	-0.09481765
238	0xbd67d012	-0.056594916
239	0xbd46b14d	-0.04850893
240	0xbd1924c0	-0.037388563
241	0x3c5061e8	0.012718655
242	0xbd215a45	-0.03939273
243	0x3cd3b777	0.025844319
244	0xbd1d21cd	-0.038362313
245	0x3d104a66	0.035227202
246	0xbcfbbd70	-0.03072998
247	0xbc98e2e2	-0.018662874
248	0xbae932d2	-0.0017791635
249	0x3d2b7747	0.0418618
250	0x3ccf354c	0.025293969
251	0xbbb9fd29	-0.005675931
252	0xbc720a91	-0.014773027
253	0xbcf7a4cb	-0.030229947
254	0xbcdbef0a	-0.026847381
255	0xbd5845fe	-0.052801125

network.0.bias f4 [128]
0	0xba43c86f	-0.00074685266
1	0x3cbaf36c	0.02282115
2	0x3caadaf6	0.020856362
3	0x3b4911e3	0.0030680827
4	0xbce7ccc0	-0.028295875
5	0x3c9975de	0.018732961
6	0x3cec9d4a	0.028883595
7	0xbbea7959	-0.007155579
8	0xbbe45808	-0.006968502
9	0xbba8cc6d	-0.0051513226
10	0xbaa6c365	-0.0012723027
11	0x3cee7df1	0.029112788
12	0x3c4f0b04	0.012636904
13	0xbcd694d2	-0.02619401
14	0xbc853c77	-0.016264183
15	0xbb26cb65	-0.0025450822
16	0xbc8226b2	-0.015887592
17	0xbcdd04ba	-0.026979793
18	0x3c12799e	0.008940129
19	0x3cceba2d	0.02523526
20	0x3bc6fc21	0.0060725366
21	0xbb627b9e	-0.0034558545
22	0x3cfb4246	0.03067125
23	0xbc47bf7c	-0.0121916495
24	0xbc9c1065	-0.019050786
25	0xbb9052b6	-0.004404391
26	0xbcae3c89	-0.0212691
27	0xb9b34f59	-0.0003420066
28	0xbcf95d26	-0.030439924
29	0xbce88c8f	-0.028387336
30	0xbb1b8d52	-0.0023735357
31	0x3c9abca3	0.018888777
32	0x3b6097d1	0.0034270177
33	0xbcf19038	-0.029487714
34	0x3ccd85d7	0.025088234
35	0x3cd429f3	0.02589891
36	0xb970c115	-0.00022960112
37	0x3c971571	0.018442841
38	0x3bf8c29d	0.007591559
39	0xbc4a7c8d	-0.012358797
40	0x3c2cffae	0.010559006
41	0xbb97cfa1	-0.0046329056
42	0xbc5a6da6	-0.013331806
43	0x3cdade2e	0.026717272
44	0xbca11270	-0.019662112
45	0x3c0077c3	0.007841053
46	0x3c85295c	0.016255073
47	0xbc1b59f3	-0.009481895
48	0xbbf22f72	-0.00739091
49	0xbca34c15	-0.01993374
50	0x3c85e7de	0.016345914
51	0xbc0b7cba	-0.008513624
52	0xbcd6e01f	-0.026229916
53	0x3c8598fd	0.016308302
54	0xbca6612a	-0.020310003
55	0xba8f50bd	-0.0010934096
56	0xbc4cd498	-0.012501858
57	0x3cb6264c	0.022235058
58	0x3c8e5669	0.017375188
59	0xbc713224	-0.014721427
60	0x3ca5f8d8	0.02026026
61	0xba6def91	-0.00090765307
62	0x3a7b1797	0.00095784053
63	0x3c9c5e94	0.019088067
64	0xbc82ad8d	-0.015951896
65	0x3b80c87b	0.003930149
66	0xbc14b1aa	-0.009075562
67	0x3c892718	0.016742274
68	0x3cc95325	0.02457578
69	0x3c5d4e1d	0.013507393
70	0x3a2f89a8	0.00066962326
71	0x3c03f6f2	0.008054482
72	0x3cdd6985	0.027027855
73	0xbcc66510	-0.024218112
74	0xba66b46f	-0.00088006904
75	0x3bb1dc57	0.005427878
76	0xbb0a7f90	-0.0021133162
77	0x3a755a10	0.00093594287
78	0xbca19cc0	-0.019728065
79	0x3c9e244b	0.019304415
80	0x3ba1fc12	0.004943379
81	0xbc5d01ac	-0.013489168
82	0xbc985198	-0.018593594
83	0xbc9f8cb7	-0.019476278
84	0x3bd0261d	0.0063521997
85	0x3cbfc120	0.023407519
86	0xbcf9dc14	-0.03050045
87	0xbba578dc	-0.005049808
88	0xbce4ec38	-0.02794467
89	0xbc738aa8	-0.014864601
90	0x3ad5908c	0.0016293689
91	0xbbf6a90c	-0.007527476
92	0xbcb5bba9	-0.02218421
93	0x3cf9a68a	0.03047492
94	0x384377da	4.6603243e-05
95	0xbcf44d38	-0.029821977
96	0x3cd744b4	0.026277877
97	0x3cb1fb26	0.021726202
98	0xbc5034bf	-0.012707888
99	0xbc3273ed	-0.010891897
100	0xbcf0f2a4	-0.029412575
101	0x3c7b0d93	0.015323061
102	0xbb4987a8	-0.0030751023
103	0xbcc16b8d	-0.023610855
104	0x3b99c433	0.004692578
105	0xbcc10323	-0.023561066
106	0xbc36ecd7	-0.011164865
107	0xb9cddb86	-0.00039264205
108	0x3cdf4042	0.02725232
109	0x3c95036e	0.018190112
110	0x3cf7df8f	0.030257968
111	0xbc3ee715	-0.011651774
112	0xba12e429	-0.00056034565
113	0x3ce341d2	0.027741347
114	0x3c997369	0.01873179
115	0x3cf1f867	0.029537393
116	0xbc9849a1	-0.018589796
117	0xbce1883e	-0.027530786
118	0xbc8d11da	-0.017220426
119	0x3c459808	0.012060173
120	0xbcc6c338	-0.02426301
121	0xbb8c792a	-0.004286905
122	0x3cb744b0	0.02237162
123	0xbc65d867	-0.014028645
124	0x3ca879b4	0.020565845
125	0xbcfb69a6	-0.030690026
126	0xbbda5375	-0.006662781
127	0xbbfdc032	-0.0077438587

network.1.weight f4 [128]
0	0x3f3c599d	0.7357424
1	0x3f470a2d	0.777499
2	0x3f41cde7	0.7570481
3	0x3f554602	0.8330995
4	0x3f46070d	0.7735451
5	0x3f5141ce	0.81741035
6	0x3f3eeb07	0.74577373
7	0x3f4419c3	0.7660181
8	0x3f46adbb	0.7760884
9	0x3f52be83	0.8232195
10	0x3f44abbf	0.76824564
11	0x3f4ea2a6	0.8071693
12	0x3f33c5cb	0.70223683
13	0x3f527c14	0.8222058
14	0x3f393b07	0.72355694
15	0x3f3c8966	0.73647153
16	0x3f4ee7cd	0.8082245
17	0x3f46e6d8	0.7769599
18	0x3f32f571	0.69905764
19	0x3f379074	0.7170479
20	0x3f479aa1	0.7797032
21	0x3f401c65	0.75043327
22	0x3f43f9a4	0.76552796
23	0x3f42f886	0.76160467
24	0x3f3e3cc4	0.7431147
25	0x3f4cadc0	0.7995262
26	0x3f3f8e23	0.7482626
27	0x3f3f0a1d	0.74624807
28	0x3f5086e7	0.81455845
29	0x3f4d3a76	0.8016733
30	0x3f41d554	0.7571614
31	0x3f46939d	0.7756899
32	0x3f382582	0.7193223
33	0x3f417e02	0.755829
34	0x3f4a52d6	0.7903265
35	0x3f509345	0.81474715
36	0x3f3b92ab	0.7327067
37	0x3f491008	0.78540087
38	0x3f4e330d	0.8054665
39	0x3f428dee	0.7599782
40	0x3f46f973	0.7772438
41	0x3f48f53d	0.78499204
42	0x3f40c676	0.7530283
43	0x3f44a158	0.7680869
44	0x3f5b1302	0.8557588
45	0x3f5edb84	0.87053704
46	0x3f4184a4	0.7559302
47	0x3f3fd99e	0.7494143
48	0x3f3c5d36	0.7357973
49	0x3f43b1a8	0.76442957
50	0x3f4de348	0.8042493
51	0x3f38f155	0.72243243
52	0x3f487d79	0.78316456
53	0x3f365d18	0.712358
54	0x3f45fb3f	0.77336496
55	0x3f4fcc07	0.81170696
56	0x3f35ac07	0.7096562
57	0x3f54c32c	0.8311031
58	0x3f412a08	0.7545476
59	0x3f4822b0	0.7817793
60	0x3f451536	0.7698549
61	0x3f3f5f66	0.7475494
62	0x3f45491c	0.7706468
63	0x3f44e2bf	0.7690849
64	0x3f4c86df	0.79893297
65	0x3f500743	0.8126108
66	0x3f49f6be	0.78892124
67	0x3f39d106	0.7258457
68	0x3f35db95	0.7103818
69	0x3f34e106	0.7065586
70	0x3f4e297b	0.80532044
71	0x3f302832	0.68811333
72	0x3f46e483	0.7769243
73	0x3f437260	0.763464
74	0x3f55ac32	0.83465874
75	0x3f423e6d	0.75876504
76	0x3f41adfa	0.7565609
77	0x3f4ecc1f	0.80780214
78	0x3f3277e5	0.69714195
79	0x3f3ea3b6	0.74468553
80	0x3f49a0d6	0.7876104
81	0x3f446d38	0.76729155
82	0x3f37b45c	0.7175958
83	0x3f500e18	0.81271505
84	0x3f39e4ac	0.7261455
85	0x3f3f4025	0.7470725
86	0x3f436256	0.76321924
87	0x3f413b63	0.7548124
88	0x3f470a43	0.77750033
89	0x3f4abf50	0.7919817
90	0x3f408fae	0.7521924
91	0x3f39b79d	0.72545797
92	0x3f4024fb	0.7505643
93	0x3f3a4cef	0.7277364
94	0x3f4164f5	0.75544673
95	0x3f455854	0.77087903
96	0x3f39cd7b	0.72579163
97	0x3f4d4b08	0.80192614
98	0x3f38a47c	0.72125983
99	0x3f451b59	0.76994854
100	0x3f42afe2	0.76049626
101	0x3f4f0b9e	0.808771
102	0x3f56f0da	0.8396126
103	0x3f54ef40	0.83177567
104	0x3f381e6b	0.71921414
105	0x3f428925	0.75990516
106	0x3f387558	0.7205405
107	0x3f54732a	0.82988226
108	0x3f36dff7	0.71435493
109	0x3f3d23c9	0.7388273
110	0x3f3be7eb	0.73400754
111	0x3f46d2d7	0.77665466
112	0x3f465eff	0.774887
113	0x3f384a50	0.7198839
114	0x3f4bad0c	0.79560924
115	0x3f409fcf	0.7524385
116	0x3f334e41	0.7004128
117	0x3f38234f	0.71928877
118	0x3f525c74	0.8217232
119	0x3f46c3da	0.77642596
120	0x3f4fc8a3	0.8116552
121	0x3f485f4b	0.78270406
122	0x3f44cb6c	0.768729
123	0x3f41e942	0.7574655
124	0x3f3ef861	0.74597746
125	0x3f436e05	0.7633975
126	0x3f48ba86	0.7840961
127	0x3f453e57	0.7704825

network.1.bias f4 [128]
0	0xbee6ce66	-0.45079345
1	0xbec1457b	-0.37748322
2	0xbeeba24f	-0.4602227
3	0xbf063a25	-0.5243247
4	0xbecb08dd	-0.396552
5	0xbed893c8	-0.42300248
6	0xbedca881	-0.43097308
7	0xbedb55b3	-0.4283882
8	0xbe8e6e1f	-0.2781839
9	0xbf03872f	-0.5137815
10	0xbed113f7	-0.40835544
11	0xbed9cf5c	-0.42541015
12	0xbeb00249	-0.34376743
13	0xbea1cea1	-0.31602958
14	0xbef51497	-0.4786727
15	0xbea0945e	-0.31363195
16	0xbec85394	-0.39126265
17	0xbec8bc0d	-0.3920597
18	0xbeda4225	-0.4262859
19	0xbeeb8f7b	-0.46007904
20	0xbea0107c	-0.31262577
21	0xbe92fe0a	-0.2870944
22	0xbea6e76a	-0.3259843
23	0xbeb2170d	-0.3478321
24	0xbeb85668	-0.36003423
25	0xbed7d17e	-0.42152017
26	0xbef4ba2a	-0.47798282
27	0xbe9cbe32	-0.30613858
28	0xbec54307	-0.385277
29	0xbeb4e303	-0.35329446
30	0xbee6ab6b	-0.45052657
31	0xbeafcac0	-0.34334373
32	0xbe9231c2	-0.28553587
33	0xbed1a655	-0.40947214
34	0xbead56b3	-0.3385521
35	0xbee9a410	-0.45632982
36	0xbe98335b	-0.2972668
37	0xbee3178b	-0.443539
38	0xbeaaf9ea	-0.33393794
39	0xbeade342	-0.33962446
40	0xbec214e7	-0.37906572
41	0xbee4bb9b	-0.44674382
42	0xbecacee7	-0.3961098
43	0xbebc3b77	-0.36764118
44	0xbee01ffa	-0.43774396
45	0xbef20817	-0.47271797
46	0xbecca8d0	-0.39972544
47	0xbef40070	-0.47656584
48	0xbeac8b5b	-0.3370007
49	0xbf008599	-0.50203854
50	0xbec5628e	-0.38551754
51	0xbeb174e5	-0.34659496
52	0xbeabb2bb	-0.33534798
53	0xbf01b4fd	-0.5066679
54	0xbed9054a	-0.42386848
55	0xbe944132	-0.2895599
56	0xbee89a16	-0.45430058
57	0xbee537d3	-0.44769153
58	0xbeaf7607	-0.34269735
59	0xbee0011a	-0.4375084
60	0xbe99b8f1	-0.30023912
61	0xbeb55556	-0.3541667
62	0xbee72cb7	-0.45151302
63	0xbeab60ff	-0.3347244
64	0xbeb9267c	-0.36162174
65	0xbef263bf	-0.47341725
66	0xbebaf0a6	-0.36511725
67	0xbedb3754	-0.4281565
68	0xbec08110	-0.37598467
69	0xbec4cc8b	-0.38437304
70	0xbedf3884	-0.43597806
71	0xbe7a6a46	-0.24454603
72	0xbec101ec	-0.3769678
73	0xbedc76a3	-0.43059263
74	0xbee04a12	-0.4380651
75	0xbeab1f83	-0.3342248
76	0xbee3047c	-0.4433936
77	0xbece401b	-0.40283284
78	0xbeae47f9	-0.34039286
79	0xbeee0c95	-0.46493974
80	0xbeb72af6	-0.35774964
81	0xbf0579e3	-0.5213911
82	0xbedc6260	-0.43043804
83	0xbec18647	-0.37797758
84	0xbea8d183	-0.32972345
85	0xbed4ab82	-0.415371
86	0xbec585c9	-0.38578632
87	0xbed618a0	-0.41815662
88	0xbeccbd70	-0.3998828
89	0xbf06d857	-0.5267386
90	0xbeb69bd0	-0.3566575
91	0xbebbf41a	-0.36709672
92	0xbeba52e6	-0.3639137
93	0xbea9ab7b	-0.33138642
94	0xbecc0ebd	-0.39854994
95	0xbe54b59e	-0.20772406
96	0xbee53e47	-0.44774076
97	0xbee2459c	-0.44193733
98	0xbeb8669d	-0.36015788
99	0xbed381e4	-0.41310036
100	0xbee5bd0d	-0.44870797
101	0xbf03e929	-0.5152765
102	0xbec3dd29	-0.3825467
103	0xbec7543b	-0.3893145
104	0xbee23a09	-0.44184902
105	0xbee814ac	-0.4532827
106	0xbec38877	-0.38190052
107	0xbedf7546	-0.4364416
108	0xbea9f885	-0.33197418
109	0xbeb74c01	-0.35800174
110	0xbed03b10	-0.4067006
111	0xbed5c95a	-0.41755182
112	0xbeacce91	-0.33751348
113	0xbeb6c9f3	-0.3570095
114	0xbea00d34	-0.31260073
115	0xbeacd688	-0.33757424
116	0xbea46202	-0.32106024
117	0xbebfcceb	-0.37461028
118	0xbeee65a7	-0.4656193
119	0xbec6ee4a	-0.38853675
120	0xbedfa69d	-0.43681803
121	0xbe048248	-0.12940323
122	0xbeebf49e	-0.46085066
123	0xbec9472f	-0.3931212
124	0xbe84e2d5	-0.2595431
125	0xbef59f59	-0.47973135
126	0xbeefb1bc	-0.46815288
127	0xbee1e94b	-0.441233

network.1.running_mean f4 [128]
0	0xbe40d836	-0.18832478
1	0xbf3d3a5b	-0.7391717
2	0xbdc6a793	-0.09699931
3	0xbf09200f	-0.5356454
4	0xbe8d5608	-0.276047
5	0xbf114778	-0.5674968
6	0x3dfc708f	0.12326156
7	0xbe527cb8	-0.20555389
8	0xbe2faa4b	-0.17154805
9	0xbefbdd74	-0.49192393
10	0xbecb4260	-0.39699078
11	0xbe07d2a9	-0.13263954
12	0xbe88a688	-0.26689553
13	0xbe8cf075	-0.27527204
14	0xbe978b15	-0.295983
15	0xbce08127	-0.027405335
16	0xbefc4253	-0.4926935
17	0xbf029ffd	-0.5102537
18	0xbe8381b5	-0.25684896
19	0xbad1f28f	-0.0016017723
20	0xbe819970	-0.25312376
21	0xbddea9c0	-0.10872221
22	0x3df5726e	0.11984716
23	0xbda92d72	-0.08260621
24	0xbdbca62c	-0.09211382
25	0xbe1f5035	-0.1555794
26	0xbdd67079	-0.10470671
27	0x3e1747db	0.14773504
28	0xbf71712a	-0.943133
29	0xbe73203b	-0.23742764
30	0xbec7826f	-0.389667
31	0xbd2b5673	-0.04183049
32	0x3ee0ff69	0.43944862
33	0xbe5e9cfa	-0.2173957
34	0x3db07c80	0.086174965
35	0xbec5cef1	-0.38634446
36	0xbd88698d	-0.06660757
37	0xbeaba9ba	-0.3352793
38	0xbea6fe5e	-0.32615942
39	0x3dd733d5	0.10507933
40	0xbf00c124	-0.5029471
41	0xbee510aa	-0.44739276
42	0x3cb190c0	0.021675467
43	0x3b5caf63	0.0033673875
44	0xbf635a9e	-0.88810146
45	0xbf1369f8	-0.5758357
46	0xbe6dd09f	-0.23224114
47	0xbec8258d	-0.3909115
48	0xbdb4cc9b	-0.08828088
49	0xbf117bd1	-0.56829554
50	0xbc55d264	-0.013050649
51	0xbe94ba14	-0.29048216
52	0xbe07fd38	-0.13280189
53	0xbd8b9dc8	-0.06817204
54	0xbf09f805	-0.5389407
55	0xbed63268	-0.41835332
56	0xbee75c63	-0.45187673
57	0xbf23c99b	-0.639795
58	0xbe9e74b4	-0.30948412
59	0xbe9238f8	-0.2855909
60	0xbeeaae7f	-0.45836255
61	0x3e2cc5c4	0.16872317
62	0xbe1c1aa7	-0.15244542
63	0x3bf8dfa6	0.0075950203
64	0xbe548545	-0.20753963
65	0xbe9989aa	-0.29987842
66	0xbe9f1e11	-0.31077626
67	0x3e7efb1b	0.24900477
68	0x3dc9983a	0.09843488
69	0xbec42d6a	-0.38315898
70	0xbf16571d	-0.58726674
71	0x3b5d314d	0.003375131
72	0xbd2c1fd8	-0.042022556
73	0xbea80f7a	-0.32824308
74	0xbf42417a	-0.7588116
75	0xbef2c88f	-0.4741864
76	0xbe4d6907	-0.20059596
77	0xbefb6758	-0.49102283
78	0x3e31fec1	0.17382337
79	0xbed5194f	-0.4162087
80	0xbe87d3ba	-0.26528722
81	0xbee5e750	-0.4490304
82	0x3d91e5c7	0.07123905
83	0xbef66ef2	-0.4813152
84	0xbd185508	-0.037190467
85	0xbe2ba9e2	-0.16764024
86	0xbeae831c	-0.34084404
87	0xbd0e458f	-0.034734305
88	0xbe95005a	-0.2910183
89	0xbf04dc87	-0.51899
90	0xbe91bd61	-0.28464797
91	0xbd827558	-0.06370038
92	0xbebbe5ee	-0.3669886
93	0x3e10d3a1	0.1414323
94	0xbe9fe96c	-0.31232774
95	0x3ec89c2b	0.39181647
96	0x3ba55af6	0.005046244
97	0xbee41a7f	-0.44551465
98	0x3e8f0b96	0.27938527
99	0x3db89c54	0.09014192
100	0xbe4f61a5	-0.20252092
101	0xbeab4bd6	-0.33456296
102	0xbedee9f3	-0.43537864
103	0xbed4d919	-0.41571882
104	0xbdedfb7e	-0.11620234
105	0xbeac67bb	-0.3367289
106	0x3f1a6a1c	0.6031816
107	0xbeea8ca4	-0.45810425
108	0xbe4b3462	-0.19844201
109	0xbe10f215	-0.14154847
110	0xbd1a5602	-0.03767968
111	0xbda9c134	-0.08288804
112	0xbe9389de	-0.28816122
113	0x3e9b4412	0.3032537
114	0x3cc57c2d	0.024107063
115	0xbdd6b4de	-0.104837164
116	0xbe93fe25	-0.28904834
117	0xbd8ad6dc	-0.067792624
118	0xbed00b06	-0.4063341
119	0xbe6fdae9	-0.23423351
120	0xbf0a7f08	-0.54100084
121	0x3e32fb6d	0.17478724
122	0xbe8c7674	-0.27434123
123	0xbe63938b	-0.22224252
124	0x3da17664	0.07883909
125	0x3d89bd35	0.067255415
126	0xbdd41ddc	-0.10357258
127	0xbe82e73c	-0.25567043

network.1.running_var f4 [128]
0	0x3e2e5408	0.17024243
1	0x3eaf116f	0.34192988
2	0x3e255fda	0.16149846
3	0x3e92f318	0.2870109
4	0x3e7c257d	0.24623676
5	0x3eaac5bc	0.33353984
6	0x3e106d33	0.14104156
7	0x3e311023	0.17291312
8	0x3e24fcc0	0.16112041
9	0x3e99fa88	0.30073953
10	0x3e393c03	0.18089299
11	0x3e84ef94	0.25964034
12	0x3df1898b	0.11793812
13	0x3e8199c8	0.25312638
14	0x3e1884b1	0.14894368
15	0x3e80e727	0.25176355
16	0x3eaaf64b	0.33391032
17	0x3e774ded	0.2415082
18	0x3e11b7ed	0.14230318
19	0x3e25d0e3	0.16192965
20	0x3e32a988	0.17447484
21	0x3e176e2b	0.1478812
22	0x3e1a2b1b	0.15055506
23	0x3e887d7b	0.26658234
24	0x3e54ebda	0.20793095
25	0x3e9f5214	0.31117308
26	0x3e33c8fa	0.17557135
27	0x3e08d150	0.13361096
28	0x3f0681e1	0.5254193
29	0x3ecfd2d1	0.40590528
30	0x3e42cc49	0.19023241
31	0x3e3215e5	0.17391165
32	0x3e22eb59	0.1591009
33	0x3e20e235	0.15711291
34	0x3e48816f	0.19580625
35	0x3efdcff6	0.49572724
36	0x3e2e7253	0.17035799
37	0x3e3c5c45	0.18394573
38	0x3e5f11da	0.21784154
39	0x3e2bb5b3	0.16768532
40	0x3e43cd16	0.19121203
41	0x3eaae8ef	0.3338084
42	0x3e38c629	0.18044342
43	0x3e482860	0.19546652
44	0x3f2624c3	0.64899844
45	0x3ee67b42	0.45015913
46	0x3e4018dc	0.18759483
47	0x3e6bc3d0	0.23023915
48	0x3e139b34	0.14414674
49	0x3e9e8ae1	0.3096533
50	0x3e273daa	0.16332117
51	0x3defa520	0.11701417
52	0x3e398ac3	0.1811934
53	0x3e0023df	0.12513684
54	0x3e6dddb6	0.23229107
55	0x3e8ea6d0	0.27861643
56	0x3e0ae942	0.13565543
57	0x3eae5dd3	0.34055957
58	0x3e175945	0.14780147
59	0x3e476d8b	0.19475381
60	0x3e9191a3	0.28431424
61	0x3e07c9ee	0.13260624
62	0x3e2e7c70	0.17039657
63	0x3e4d3cbb	0.20042698
64	0x3e6650df	0.22491787
65	0x3e6e9e61	0.23302604
66	0x3e52be39	0.20580377
67	0x3e07ef6e	0.13274929
68	0x3ded9501	0.11600686
69	0x3e0ec6a3	0.13942961
70	0x3eaa6f8e	0.33288234
71	0x3e27f038	0.1640023
72	0x3e386a9e	0.18009421
73	0x3e262b9a	0.1622757
74	0x3ef2e126	0.474374
75	0x3e45373b	0.1925935
76	0x3e23c068	0.15991366
77	0x3ea6f025	0.3260509
78	0x3df64a82	0.1202593
79	0x3e245fdc	0.16052192
80	0x3e5d4ad1	0.21610571
81	0x3e4cb99f	0.19992684
82	0x3e18266b	0.14858405
83	0x3e997722	0.29973704
84	0x3df19b6f	0.11797225
85	0x3e39a077	0.18127619
86	0x3e5be508	0.21474087
87	0x3e06d065	0.13165434
88	0x3e2dce9e	0.1697335
89	0x3e88cfd0	0.26721048
90	0x3e08d970	0.13364196
91	0x3e95b192	0.29237038
92	0x3e37a43a	0.17933741
93	0x3e0848e5	0.13309057
94	0x3e06e0f5	0.13171752
95	0x3e341c92	0.17589024
96	0x3e4e1774	0.20126134
97	0x3e34020d	0.17578907
98	0x3e3d9312	0.18513134
99	0x3e1aa5cf	0.15102313
100	0x3e3cbad3	0.18430643
101	0x3e5e6a03	0.21720128
102	0x3ef63e7b	0.48094544
103	0x3e8ff8ec	0.281196
104	0x3df2c46f	0.11853873
105	0x3e09a2d4	0.1344102
106	0x3e1be6f0	0.15224814
107	0x3e626ac0	0.22111034
108	0x3e2d6723	0.16933875
109	0x3e02bce9	0.12767376
110	0x3e3f729d	0.18696065
111	0x3e27cc4d	0.16386528
112	0x3e68e66c	0.22744149
113	0x3e191759	0.14950313
114	0x3e6607f6	0.22463974
115	0x3e0842bd	0.13306709
116	0x3e038a22	0.12845662
117	0x3e2e8353	0.17042284
118	0x3e8c0e17	0.273545
119	0x3e61b389	0.22041143
120	0x3f0a1e25	0.53952247
121	0x3e541b65	0.20713575
122	0x3e36cb18	0.17850912
123	0x3e4ce1c1	0.20007993
124	0x3e1137ff	0.14181517
125	0x3e7243ca	0.23658672
126	0x3e5c0314	0.21485549
127	0x3e589ac4	0.21152788

network.4.weight f4 [64, 128]
0	0x3b8dc450	0.004326381
1	0xbdfbec69	-0.12300951
2	0x3e1044e0	0.14088774
3	0x3dac0930	0.0840019
4	0xbcd6f9e2	-0.0262422
5	0xbd8ff52c	-0.07029185
6	0xbdde1c06	-0.10845189
7	0xbc2efbd2	-0.010680156
8	0x3cfd16ba	0.030894626
9	0x3d1111da	0.035417415
10	0x3d75c737	0.06000444
11	0x3d613dbf	0.054990526
12	0x3c5035aa	0.012708107
13	0xbcdf9503	-0.027292734
14	0xbb60bf16	-0.0034293584
15	0x3d46c652	0.048528977
16	0xbd34ebb1	-0.044170085
17	0xbe0bd0c4	-0.13653857
18	0xbd5c6704	-0.05380918
19	0x3bec8896	0.0072184308
20	0x3bdb057a	0.0066840025
21	0xbce78e43	-0.028266078
22	0xbd501ebb	-0.050810557
23	0x3d63118a	0.05543665
24	0xbd26d75c	-0.040732726
25	0xbe155b1b	-0.14585535
26	0x3cd95c0e	0.026533153
27	0x3d013d45	0.03155257
28	0x3d0b7b2f	0.034053024
29	0x3d2eb54e	0.042653374
30	0xbd5a4bab	-0.05329482
31	0x3d382458	0.044956535
32	0xbc5e78a8	-0.013578571
33	0xbca1d593	-0.01975516
34	0x3de9eda4	0.114222795
35	0xbd9ecdd5	-0.07754103
36	0x3aeedb3c	0.0018223296
37	0xbd000123	-0.031251084
38	0xbd4a0ec9	-0.049330506
39	0xbc8e502d	-0.017372215
40	0xbbd79f2a	-0.006580253
41	0xbdc952ff	-0.098302834
42	0xbc8ecb3c	-0.017430894
43	0x3ccc7cd7	0.024961872
44	0x3d834278	0.06409162
45	0xbcd5fc7c	-0.02612137
46	0xbd67dcc6	-0.05660703
47	0xbd7362f2	-0.059420533
48	0x3d32140d	0.043476153
49	0xbceadc64	-0.028669544
50	0xbc6dee4f	-0.014522149
51	0x3d66a1ed	0.05630677
52	0x3d506311	0.050875727
53	0xbd1ca5b7	-0.038243975
54	0x3d92f756	0.07176082
55	0xbdd9172b	-0.10600122
56	0xbd1c7fd3	-0.03820784
57	0x3dd6382c	0.10459933
58	0x3cb92c9b	0.022604277
59	0xbc9095fa	-0.01764964
60	0xbd3fa185	-0.046784896
61	0x3d9b92ea	0.07596381
62	0x3d72f0a6	0.05931153
63	0xbcc1ca00	-0.023655891
64	0x3d16d0fa	0.03682039
65	0xbe05b471	-0.13057114
66	0x3d47ceec	0.04878132
67	0xbc360d09	-0.011111506
68	0xbdbf233b	-0.093328916
69	0xbc86f249	-0.016472952
70	0xbd93987f	-0.07206821
71	0xbc810a83	-0.015752083
72	0xbd8561cb	-0.06512793
73	0xbdc853f7	-0.0978164
74	0x3d5a6c5b	0.053325992
75	0xbd043f44	-0.032286897
76	0xbdb1128a	-0.08646114
77	0xbaf989a6	-0.0019038215
78	0xbd1a59da	-0.037683345
79	0xbcf29dec	-0.029616319
80	0xbd8c6694	-0.06855503
81	0x3e2a38f8	0.16623294
82	0xbcd54f7e	-0.026038881
83	0xbccb116b	-0.024788579
84	0x3da1c237	0.07898372
85	0xbd5311a7	-0.051530506
86	0xbe01edc5	-0.12688358
87	0xbd494ce6	-0.0491456
88	0x3dc6c10c	0.097047895
89	0x3d3e72f1	0.046496335
90	0x3d621358	0.05519423
91	0xbd83a4cf	-0.06427919
92	0xbdab59a7	-0.08366709
93	0xbd666581	-0.056249145
94	0x3dc9b157	0.09848278
95	0x3b1b82f3	0.0023729175
96	0x3d6c99fc	0.05776404
97	0xbd69f1a1	-0.0571152
98	0xbc863fda	-0.016387869
99	0xbe121855	-0.14267094
100	0x3c962098	0.018326089
101	0xbd79cb5e	-0.06098496
102	0xbd88090e	-0.06642352
103	0x3b8806db	0.004151208
104	0xbd72fdc2	-0.059324034
105	0x3e00ab91	0.12565447
106	0x3bc1f615	0.005919228
107	0x3df2d1dd	0.118564345
108	0xbd1db89e	-0.038506143
109	0xbd581182	-0.05275107
110	0xbd39af9f	-0.0453335
111	0x3d0fcc7d	0.035107125
112	0x3d302ad7	0.043009605
113	0x38c42347	9.352579e-05
114	0xbcc75975	-0.024334649
115	0x3d569c71	0.052395288
116	0xbcaff9ab	-0.021481356
117	0x3e0cc346	0.13746366
118	0xbde4c48b	-0.111703
119	0x3cf7a03f	0.030227778
120	0x3ba0c255	0.0049059787
121	0xbca26e19	-0.01982789
122	0xbd8c9e5a	-0.06866141
123	0x3cbdba32	0.023160074
124	0x3d866e8f	0.06564056
125	0xbd852c30	-0.06502569
126	0xbdb268e7	-0.08711415
127	0x3c654e80	0.013995767
128	0x3d18ee7d	0.037336815
129	0xbd63978d	-0.055564452
130	0xbdc53321	-0.09628893
131	0xbdd743e5	-0.10510997
132	0xbcec0eec	-0.028815709
133	0xbd1bdb69	-0.038051043
134	0x3db106f4	0.08643904
135	0xbca1d5ee	-0.01975533
136	0xbd29b18b	-0.041429084
137	0x3d122c21	0.035686616
138	0x3d271813	0.040794443
139	0xbe33234d	-0.17493935
140	0x3cb92825	0.02260215
141	0xbd40e3fa	-0.047092415
142	0x3c003d50	0.007827118
143	0x3d207488	0.039173633
144	0xbd7d80a3	-0.061890256
145	0xbcc196d4	-0.02363149
146	0x3d9569bc	0.07295558
147	0xbd183dbe	-0.037168257
148	0xbcf56178	-0.029953703
149	0xbd743f14	-0.05963047
150	0xbc0a7367	-0.008450366
151	0xbc8f2b73	-0.017476773
152	0x3e167c42	0.14695838
153	0x3b260e8f	0.0025338267
154	0x3c20d573	0.009816515
155	0xbc4fbe1b	-0.012679602
156	0x3d9b866f	0.075940005
157	0x3bfa9d28	0.007648129
158	0xbc47a144	-0.012184445
159	0xbc305a30	-0.01076369
160	0xbd97a8d3	-0.074052475
161	0xbcaf5116	-0.02140097
162	0xba16ade5	-0.0005747958
163	0xbd8d9086	-0.06912331
164	0xbb3d441f	-0.0028879715
165	0xbd612ee0	-0.054976344
166	0x3d4d40de	0.05011069
167	0x3e004492	0.12526157
168	0x3d0764f9	0.03305528
169	0xbdc15bfd	-0.094413735
170	0xbd2607bf	-0.04053473
171	0xbdab661f	-0.083690874
172	0x3d6f58b8	0.05843422
173	0xbd79ecec	-0.061016962
174	0x3dd44ca8	0.103661835
175	0x3c74de69	0.014945605
176	0xbcb23bc3	-0.021757012
177	0x3e420051	0.18945433
178	0xbd156571	-0.036473695
179	0xbcd44a53	-0.025914347
180	0xbd246c8a	-0.040142573
181	0xbc5e4274	-0.013565648
182	0xbd3f5cf6	-0.046719514
183	0x3b9ef3cd	0.0048508407
184	0x3c93ba64	0.018033214
185	0xbe42e3dc	-0.19032234
186	0xbcbb2bbe	-0.022848006
187	0x3be4b231	0.00697925
188	0x3c20fa71	0.009825335
189	0xbcf27cbf	-0.0296005
190	0xbb2ff875	-0.0026850973
191	0xbb975657	-0.004618447
192	0x3ca120dc	0.019668989
193	0xbcb7215a	-0.02235477
194	0xbc095a6f	-0.008383377
195	0xbcda8b2b	-0.026677689
196	0x3d3d3e70	0.046202123
197	0x3c81f2ba	0.015862811
198	0xba4eefaf	-0.0007893992
199	0x3cdc1ecd	0.026870156
200	0x3e4f2d01	0.20232011
201	0x3d807c3e	0.06273697
202	0xbe4f89f5	-0.2026747
203	0xbca684c5	-0.020326981
204	0x3d4ef96c	0.050530836
205	0x3da58c09	0.0808335
206	0xbc42d83d	-0.011892376
207	0x3d345602	0.044027336
208	0xbb0a4646	-0.0021099015
209	0xbd9345f7	-0.07191079
210	0x3d0281ec	0.031862184
211	0xbcf421f2	-0.029801343
212	0xbd408cd3	-0.0470093
213	0x3cede7d7	0.029041214
214	0x3df6fd6b	0.120600544
215	0x3d70f6a9	0.058828983
216	0xbd850627	-0.06495314
217	0x3da433e2	0.08017708
218	0xbccccad6	-0.024999063
219	0x3c34174a	0.010991881
220	0x3df7ee9b	0.12106057
221	0xbcdf6fb4	-0.027274944
222	0xbdc45860	-0.09587169
223	0xbd6b14d6	-0.057392918
224	0xbce83693	-0.028346336
225	0xbd296444	-0.041355386
226	0xbca95872	-0.020672057
227	0xbd2ffdb6	-0.042966567
228	0xbdddcd65	-0.108301915
229	0x3b81cf21	0.0039614593
230	0x3cc58248	0.024109975
231	0x3c4bd11a	0.01243999
232	0xbcfd5def	-0.03092858
233	0xbd8c58dd	-0.06852887
234	0xbca744d3	-0.02041856
235	0xbd356115	-0.044282038
236	0x3adfb9fa	0.0017068975
237	0x3dded9f7	0.10881417
238	0xbc97f0eb	-0.018547496
239	0x3c7b00fb	0.015320058
240	0xbdb1e3d6	-0.086860344
241	0x3b82cf9d	0.0039920346
242	0xbdb10706	-0.08643918
243	0xbc8bb463	-0.017053789
244	0x3e01a402	0.1266022
245	0xbb0bd8fd	-0.0021339052
246	0xbcb9404d	-0.022613669
247	0x3d8ef14a	0.06979616
248	0xbd1cfdfa	-0.03832815
249	0xbd15ec97	-0.036602583
250	0x3cc07c80	0.023496866
251	0x3d8b7dbf	0.068110935
252	0xbd878076	-0.06616299
253	0xbdd5027e	-0.10400866
254	0xbd22e3f1	-0.039768163
255	0x3d367a4b	0.04455022

network.4.bias f4 [64]
0	0x3d0bd186	0.034135364
1	0x3d0097cc	0.031394765
2	0x3ce3cf4e	0.027808812
3	0xbd5c9912	-0.053856917
4	0xbd4e6bfd	-0.050395954
5	0x3d590344	0.05298163
6	0xbd3ba6cd	-0.04581337
7	0x3bfe71b3	0.007765019
8	0x3c01588f	0.007894649
9	0xbd34e1ae	-0.044160537
10	0x3d925be5	0.07146434
11	0x3d8f957b	0.07010933
12	0xbd16134d	-0.0366395
13	0x3d67f9c7	0.05663469
14	0xbd6b438c	-0.057437465
15	0xbd8659c0	-0.06560087
16	0x3c8be46e	0.017076697
17	0x3d7e6cb6	0.062115394
18	0xbd1a82ec	-0.037722513
19	0xbd782d64	-0.060590163
20	0x3d1c851d	0.038212884
21	0x3d2013b9	0.03908131
22	0xbc6f28d2	-0.014597135
23	0x3d9aae62	0.07552792
24	0x3cd4adf0	0.025961846
25	0xbd070aaf	-0.032969173
26	0x3c7d532b	0.015461723
27	0x3c93ee3a	0.018057931
28	0xbd4e61f0	-0.05038637
29	0x3c19dbcb	0.009390782
30	0x3c8b4cf6	0.017004471
31	0x3bbb0b06	0.005708101
32	0xbcbe80ad	-0.023254717
33	0x3ca06626	0.019579958
34	0xbd3b83c1	-0.045779947
35	0x3a1c1a4e	0.00059548474
36	0x3aef3509	0.0018250059
37	0x3a835575	0.0010019975
38	0xbcaec9be	-0.021336433
39	0xbd4b8bcd	-0.04969387
40	0x3d8a803e	0.067627415
41	0xb8c3e9d3	-9.341878e-05
42	0xbcc1d2f9	-0.02366017
43	0xbd4322fa	-0.047640778
44	0xbd41356b	-0.047170084
45	0xbd08c67c	-0.033392414
46	0xbd4a17f8	-0.049339265
47	0xbd245bc6	-0.040126584
48	0xbd5ca654	-0.05386956
49	0x3d5264a0	0.051365495
50	0x3cbdead3	0.023183262
51	0xbd601c8a	-0.054714717
52	0xbc07cc13	-0.008288401
53	0x3d79d0b2	0.060990043
54	0x3aa26967	0.0012391031
55	0x3c264655	0.010148604
56	0xbcf5f615	-0.030024568
57	0x3cb9a629	0.02266224
58	0xbbca14a0	-0.0061670095
59	0x3d48297b	0.048867684
60	0x3c78f91b	0.01519611
61	0xbc0d3cd4	-0.00862046
62	0x3d2495f6	0.040182076
63	0xbd5f48ec	-0.054512903

network.5.weight f4 [64]
0	0x3f9f6c80	1.2454987
1	0x3fa5e505	1.2960516
2	0x3f964351	1.1739293
3	0x3f9a0dc1	1.2035447
4	0x3f9b030b	1.2110304
5	0x3f9ba28d	1.2158982
6	0x3fa2ceb3	1.271933
7	0x3f99bf45	1.2011496
8	0x3f9f7fbb	1.2460855
9	0x3fb41d9f	1.407154
10	0x3f9da376	1.2315509
11	0x3fb67af9	1.4256278
12	0x3f95c5d1	1.1700994
13	0x3f9503a1	1.1641732
14	0x3fa3cb25	1.279637
15	0x3fa1eca4	1.2650342
16	0x3fb57d26	1.4178817
17	0x3f93692f	1.1516474
18	0x3f974e3c	1.182075
19	0x3f9de74c	1.2336211
20	0x3f9c3618	1.2204008
21	0x3f920231	1.1406919
22	0x3faeb38d	1.3648545
23	0x3faed521	1.3658792
24	0x3fb07b20	1.3787575
25	0x3fa2a2f2	1.2705977
26	0x3fa067a2	1.2531626
27	0x3f9ce8d1	1.225855
28	0x3f94f1fb	1.1636347
29	0x3fa24a6a	1.2678959
30	0x3f9ad0f4	1.2095017
31	0x3fa46159	1.2842208
32	0x3f9dc998	1.2327147
33	0x3fa20500	1.2657776
34	0x3f9e38e6	1.2361114
35	0x3f977c85	1.1834875
36	0x3f944f13	1.1586632
37	0x3fa3e40a	1.2803967
38	0x3f99a4c3	1.2003406
39	0x3fa77a11	1.3084127
40	0x3f996c08	1.1986094
41	0x3f9d0b21	1.2269021
42	0x3f9275a6	1.1442153
43	0x3f8fb85f	1.122814
44	0x3f9b52f7	1.2134694
45	0x3f97ce93	1.1859916
46	0x3f9a0388	1.2032328
47	0x3fa3f097	1.2807797
48	0x3f988c11	1.1917745
49	0x3f9a3790	1.2048206
50	0x3fa22e4c	1.2670379
51	0x3f9f1ecb	1.2431272
52	0x3f9a7df4	1.2069688
53	0x3fa2ca43	1.2717975
54	0x3fc581a4	1.5430188
55	0x3fbdec34	1.4837708
56	0x3fa62f6d	1.2983223
57	0x3f950527	1.1642197
58	0x3f9e84eb	1.2384313
59	0x3fb8efa8	1.4448137
60	0x3fbf7c08	1.4959726
61	0x3fa30d76	1.2738483
62	0x3f9424ea	1.1573765
63	0x3fac1615	1.3444239

network.5.bias f4 [64]
0	0x3df5da59	0.12004537
1	0x3c9ab439	0.018884765
2	0x3e26a87b	0.16275208
3	0x3e1d9650	0.15389371
4	0x3d49cacf	0.04926568
5	0x3ce5e367	0.028062535
6	0x3e4edd0c	0.2020151
7	0xbc5e4f62	-0.013568731
8	0x3e7e4f78	0.24835002
9	0x3e737e8b	0.23778741
10	0x3e2b7fb4	0.16747934
11	0x3e4decc8	0.20109856
12	0x3e25601b	0.16149943
13	0x3c89abbb	0.01680552
14	0x3e22a4ed	0.15883227
15	0x3e66e7e4	0.22549397
16	0x3e736cb6	0.23771939
17	0xbcffa19f	-0.031204997
18	0x3e0d3634	0.13790208
19	0x3bdacae3	0.006677018
20	0x3c2fa84c	0.010721277
21	0x3e5d5e4f	0.21618007
22	0x3e55f95a	0.20895901
23	0x3d7f49e7	0.06232634
24	0x3de18ee3	0.110135816
25	0x3d43a973	0.04776902
26	0x3cd81daf	0.026381342
27	0x3baebf01	0.005332828
28	0x3df95f47	0.12176376
29	0x3e2df50e	0.16988012
30	0x3dd585d6	0.10425918
31	0x3e6285d1	0.2212136
32	0x3e0a8ba8	0.13529837
33	0x3d065e2f	0.032804664
34	0x3b8649d6	0.0040981574
35	0x3da0df14	0.07855049
36	0x3d7467d2	0.059669323
37	0x3e3e0dcf	0.18559955
38	0x3e3574c3	0.17720322
39	0x3e1f8834	0.15579301
40	0x3e316ac9	0.17325892
41	0x3dfbed7c	0.12301156
42	0x3e092701	0.13393785
43	0xbd0ace27	-0.03388801
44	0x3e137af7	0.14402376
45	0x3e3548b8	0.17703521
46	0x3e32c271	0.17456986
47	0x3deade37	0.11468165
48	0x3db6a349	0.08917863
49	0x3dcc25ac	0.09968123
50	0x3e751466	0.23933563
51	0x3e70b349	0.23505892
52	0x3e5ebecb	0.21752469
53	0x3db10cc0	0.0864501
54	0x3eb45272	0.3521915
55	0x3e6da9eb	0.2320935
56	0x3e4e36da	0.20138112
57	0xbd1885d3	-0.037237
58	0x3c135a9a	0.008993769
59	0x3e21efdd	0.15814157
60	0x3e4f0628	0.20217192
61	0x3caabc41	0.02084172
62	0x3e197428	0.14985716
63	0x3e1817da	0.14852849

network.5.running_mean f4 [64]
0	0xbde3ca82	-0.1112261
1	0xbddb093b	-0.1069512
2	0x3d55ffd1	0.05224592
3	0xbca6f058	-0.020378277
4	0xbe6711a8	-0.22565329
5	0xbdd43ae4	-0.10362795
6	0x3deb7c73	0.11498346
7	0xbe0849d0	-0.13309407
8	0x3bd9c358	0.0066456012
9	0x3da1ce7a	0.079007104
10	0x3d424824	0.04743208
11	0xbd9db3cc	-0.07700309
12	0xbca5697a	-0.020191897
13	0xbd1c7884	-0.03820087
14	0xbe686dea	-0.22698179
15	0xbde4cbed	-0.11171708
16	0x3df1b8ed	0.1180285
17	0xbc8d67d0	-0.017261416
18	0xbda994d3	-0.08280339
19	0xbe6e04ed	-0.23244067
20	0x3c4699be	0.012121616
21	0xbc5612ac	-0.013065975
22	0xbd424aee	-0.04743474
23	0xbd241db5	-0.040067393
24	0xbdf6a8dd	-0.12043927
25	0xbe6bbeba	-0.23021975
26	0xbe6c11c1	-0.23053648
27	0xbe5b2436	-0.21400532
28	0xbd067ea8	-0.032835633
29	0x3e04f185	0.12982757
30	0xbd829a56	-0.063770935
31	0x3d8201f9	0.063480325
32	0xbe82b27f	-0.25526807
33	0xbe4d3264	-0.20038754
34	0xbe397d95	-0.18114312
35	0xbd650603	-0.055913936
36	0x3dcb4241	0.09924746
37	0x3d0ab72c	0.033866093
38	0xbdaa27a3	-0.08308341
39	0x3baad40e	0.005213267
40	0x3db2d022	0.087311044
41	0xbe20c482	-0.15699962
42	0xbd34a7ff	-0.044105526
43	0xbda313da	-0.07962771
44	0xbe04f97e	-0.12985799
45	0x3a8c690d	0.001071246
46	0x3e52931d	0.20563932
47	0xbde70d00	-0.112817764
48	0xbe30f375	-0.17280371
49	0xbe2d0615	-0.16896851
50	0x3ec5cc53	0.3863245
51	0x3e27ef37	0.16399847
52	0x3d8243e7	0.063606076
53	0x3a1b6660	0.0005928036
54	0x3d5f89aa	0.054574646
55	0x3e0d5d33	0.13805084
56	0xbdd6dad6	-0.104909584
57	0xbdf8f0de	-0.12155317
58	0xbe856a82	-0.26057822
59	0x3c467167	0.012111998
60	0x3e053172	0.13007143
61	0xbdb76f58	-0.08956784
62	0xbd9e35f9	-0.07725138
63	0xbe2298c4	-0.15878588

network.5.running_var f4 [64]
0	0x3e0b786d	0.13620158
1	0x3e2b11de	0.16706035
2	0x3e21aa1f	0.15787552
3	0x3e07d3d6	0.13264403
4	0x3e110d1b	0.14165156
5	0x3e11cdfe	0.14238736
6	0x3e14829c	0.14502949
7	0x3e0112cc	0.12604827
8	0x3e1e6324	0.15467507
9	0x3e32f3b4	0.17475778
10	0x3e106203	0.14099889
11	0x3e3841cb	0.17993848
12	0x3e1011c5	0.14069279
13	0x3e0c62cc	0.13709563
14	0x3e18d246	0.14923963
15	0x3e3b4fd5	0.18292172
16	0x3e17c29c	0.14820331
17	0x3e07bc53	0.13255434
18	0x3e109edb	0.14123099
19	0x3e16fa18	0.1474384
20	0x3e204e6c	0.15654916
21	0x3df7359e	0.120707735
22	0x3e4c4dbd	0.1995153
23	0x3e0dedc3	0.1386023
24	0x3e24497f	0.16043662
25	0x3e32a636	0.17446217
26	0x3e2eeabf	0.17081736
27	0x3e1a3bec	0.15061921
28	0x3e02762b	0.1274039
29	0x3e0f9abc	0.1402387
30	0x3e33b652	0.17550018
31	0x3e0d0cc8	0.13774407
32	0x3e27de47	0.16393386
33	0x3e0c1d5a	0.13683072
34	0x3dff8810	0.12477124
35	0x3e130b14	0.14359695
36	0x3df44d20	0.11928773
37	0x3e257fcb	0.1616203
38	0x3e0852da	0.13312855
39	0x3e1b226a	0.15149847
40	0x3e0b3245	0.13593395
41	0x3e0c208d	0.13684292
42	0x3e16cb5f	0.14726017
43	0x3dde0bef	0.1084212
44	0x3e1c4ffd	0.15264888
45	0x3e0ff453	0.14058046
46	0x3e209923	0.15683417
47	0x3e32f2d9	0.17475452
48	0x3e160053	0.14648561
49	0x3e18506f	0.14874433
50	0x3e2c18e2	0.16806367
51	0x3e261f8e	0.16222975
52	0x3e1290c9	0.14313044
53	0x3e1898f2	0.14902094
54	0x3e3cabf6	0.18424973
55	0x3e165ee5	0.14684637
56	0x3e3b3e7a	0.18285552
57	0x3e1ef4e5	0.15523107
58	0x3e069dfd	0.13146205
59	0x3e44a84b	0.19204824
60	0x3e2c5de9	0.16832699
61	0x3e344f3b	0.17608349
62	0x3df1b938	0.11802906
63	0x3e366d02	0.1781502

network.8.weight f4 [10, 64]
0	0x3e94356b	0.28947005
1	0x3eb9a2af	0.3625693
2	0xbdc4f85e	-0.09617685
3	0x3e4854ab	0.19563548
4	0x3e952987	0.29133245
5	0x3ea90a28	0.3301556
6	0xbe9e31f4	-0.30897486
7	0xbe39df4a	-0.18151584
8	0x3e88fa7f	0.26753613
9	0xbe6873fb	-0.22700493
10	0x3ea981b7	0.33106777
11	0x3ecc4335	0.39895025
12	0xbe81a318	-0.25319743
13	0xbe362627	-0.17787991
14	0x3e448406	0.19190988
15	0xbea5cb23	-0.32381544
16	0xbe7f52a6	-0.24933872
17	0x3ebdaf47	0.37047789
18	0xbe70778c	-0.23483104
19	0xbe624621	-0.22097065
20	0x3e9ed547	0.31022093
21	0xbeb334ac	-0.35001123
22	0xbd097798	-0.03356132
23	0xbe874a74	-0.2642399
24	0xbdac85c5	-0.08423952
25	0xbed4f12c	-0.4159025
26	0x3ebc7a14	0.36811888
27	0xbdb8839a	-0.09009476
28	0x3e9b51f0	0.3033595
29	0xbe4277a6	-0.18990955
30	0xbdabae88	-0.083828986
31	0x3eb8478d	0.3599209
32	0x3e77432f	0.24146722
33	0xbda62ef9	-0.08114428
34	0x3eb3bbb3	0.3510414
35	0xbec0f648	-0.37687898
36	0xbe574dd6	-0.21025786
37	0x3e9a5bc0	0.30148125
38	0xbd55f46e	-0.05223506
39	0x3eae8373	0.34084663
40	0xbe81708b	-0.25281176
41	0xbd8065e2	-0.062694326
42	0x3e81b5ae	0.25333923
43	0xbe816474	-0.25271952
44	0xbe63c4c3	-0.22243027
45	0x3e9344ad	0.28763333
46	0xbe54bdde	-0.20775554
47	0x3eadb2ff	0.33925626
48	0x3e9cfbea	0.30660945
49	0xbe931b65	-0.28731838
50	0xbd8324cb	-0.06403502
51	0x3e84c62b	0.2593244
52	0xbe26b76b	-0.16280906
53	0x3ec0f89d	0.37689677
54	0xbeb3a994	-0.35090315
55	0xbdb4cb24	-0.088278085
56	0xbdd64d6f	-0.10463988
57	0x3e86c21f	0.26319978
58	0xbe365b61	-0.17808296
59	0x3ee8f671	0.4550052
60	0xbe985e67	-0.29759523
61	0xbe61af7a	-0.22039595
62	0x3e1e054d	0.1543171
63	0xbe5b8b9a	-0.21439973
64	0x3e60ecc1	0.21965314
65	0xbea72862	-0.32647997
66	0xbe52972d	-0.20565481
67	0xbe4372df	-0.19086789
68	0xbeb51eb7	-0.35374996
69	0xbe014b01	-0.12626268
70	0x3f06a62b	0.525973
71	0xbdbafc51	-0.09130157
72	0xbec37236	-0.38173074
73	0xbe748ff4	-0.23883039
74	0xbea2fcf9	-0.31833628
75	0xbec47a5a	-0.38374597
76	0x3d580856	0.052742325
77	0x3ede8e0a	0.43467742
78	0x3d9aecc2	0.07564689
79	0x3ddacf9c	0.106841296
80	0xbeb2956b	-0.34879622
81	0xbe401fa7	-0.18762074
82	0x3ec6fb54	0.38863623
83	0xbea589c3	-0.32331666
84	0x3ed5f757	0.41790268
85	0x3ea44f66	0.32091826
86	0x3f0f04cd	0.558667
87	0xbe43b95e	-0.1911368
88	0xbe9160c1	-0.2839413
89	0xbe1b2b3f	-0.15153216
90	0xbea9c592	-0.33158547
91	0xbe98e5ba	-0.29862767
92	0xbe812cc7	-0.25229475
93	0xbea1fd8b	-0.3163875
94	0x3eded40c	0.43521154
95	0x3ebeb0a4	0.3724414
96	0xbe852dbc	-0.26011455
97	0x3f0f13c5	0.5588954
98	0xbebce20c	-0.3689121
99	0xbebdef34	-0.3709656
100	0xbca24b47	-0.019811286
101	0x3ed106ab	0.408254
102	0x3ecdbe02	0.40184027
103	0x3ebf59db	0.37373242
104	0xbec22405	-0.37918106
105	0x3dc23f68	0.0948475
106	0x3eb8558e	0.36002773
107	0xbea75425	-0.32681385
108	0x3ec62b36	0.38704842
109	0xbe59acc0	-0.21257305
110	0x3df15612	0.11783995
111	0x3efa6dfc	0.48912036
112	0xbea1cb99	-0.31600645
113	0xbeb0cf4d	-0.34533158
114	0x3ee8b9b0	0.45454168
115	0x3eda40e4	0.42627633
116	0x3e31a9ee	0.1734998
117	0xbea6be03	-0.32566842
118	0xbea07b24	-0.3134395
119	0xbe7a53b9	-0.24446
120	0x3ee3f74b	0.44524607
121	0xbe448eb6	-0.19195065
122	0xbea06124	-0.31324112
123	0xbe84d574	-0.25944102
124	0xbe1bc75e	-0.15212771
125	0x3efcc300	0.49367523
126	0x3eb66a9f	0.3562822
127	0xbeeb8ad9	-0.4600437
128	0xbcb936e3	-0.02260918
129	0x3ed0af99	0.4075897
130	0x3e6f3568	0.23360217
131	0x3dadfd3d	0.08495567
132	0xbe65657f	-0.22401999
133	0xbe823a5c	-0.2543515
134	0xbe521c45	-0.20518596
135	0x3edf6b5a	0.4363659
136	0x3e78efe7	0.24310265
137	0x3cdf389f	0.027248679
138	0x3b84fa51	0.0040581604
139	0x3ecac641	0.3960438
140	0x3e1956df	0.14974545
141	0xbe3295e1	-0.17439987
142	0xbe85d130	-0.2613616
143	0x3ecb16d9	0.3966587
144	0xbe9ee25d	-0.31032076
145	0xbe1d87e9	-0.15383877
146	0xbe1d1f95	-0.15344079
147	0xbda26290	-0.079289556
148	0xbe227523	-0.15864997
149	0x3e42d210	0.19025445
150	0x3eb0fa6c	0.34566057
151	0xbea84a1b	-0.32869038
152	0x3edf650e	0.43631786
153	0x3ed78a68	0.42097783
154	0x3eaf728a	0.34267074
155	0x3e9f3332	0.31093746
156	0x3e5e1023	0.21685843
157	0xbe3e8455	-0.18605168
158	0xbeaf1797	-0.34197685
159	0xbe9450c7	-0.28967878
160	0x3e890559	0.26761892
161	0xbddfc0dc	-0.10925457
162	0x3eb7d46a	0.35904247
163	0xbe87eab4	-0.26546252
164	0xbe52e48e	-0.20594999
165	0xbe528e8e	-0.20562193
166	0x3e5f9e01	0.21837617
167	0xbedba06d	-0.42895833
168	0xbe9fb23c	-0.3119067
169	0x3e3d8f6a	0.1851174
170	0x3e8d686d	0.27618733
171	0x3d5eea94	0.05442293
172	0xbe81342c	-0.25235116
173	0xbdb81a69	-0.08989412
174	0xbdac3b19	-0.084097095
175	0x3ea80b92	0.32821327
176	0xbe937b81	-0.28805164
177	0x3e306536	0.17226109
178	0xbeb03919	-0.34418562
179	0xbe8779dc	-0.2646016
180	0xbebf1cac	-0.37326562
181	0xbe9185fd	-0.28422537
182	0xbe94b7a6	-0.29046363
183	0xbe81eae6	-0.25374526
184	0xbe8afe90	-0.2714734
185	0x3ea7ccd6	0.32773465
186	0xbd5cf0a5	-0.053940434
187	0x3ef7575e	0.48308843
188	0xbe895199	-0.26820067
189	0x3ed47af7	0.41500065
190	0x3e904947	0.28180906
191	0x3ebc2060	0.3674345
192	0x3ea253c1	0.31704524
193	0x3eb3b82f	0.35101458
194	0xbe57843f	-0.21046542
195	0xbe99ea55	-0.30061594
196	0x3ea6f88d	0.32611504
197	0x3ea83001	0.32849124
198	0xbe280d5e	-0.16411349
199	0xbe7a66df	-0.24453305
200	0x3e863d91	0.26218846
201	0xbe915b15	-0.28389803
202	0x3eb13961	0.3461409
203	0x3ed5da1b	0.41767964
204	0x3ea35a62	0.31904894
205	0x3ec9f43f	0.39444157
206	0xbf05ea7c	-0.5231092
207	0xbe6c6542	-0.23085502
208	0xbe165fec	-0.14685029
209	0xbd4e3ce9	-0.050351057
210	0x3eaf227b	0.34205994
211	0x3ec61d85	0.38694397
212	0xbe6aa84b	-0.22915761
213	0x3e98d7c0	0.29852104
214	0xbece89dc	-0.40339553
215	0xbe0c50e3	-0.13702731
216	0xbef51891	-0.47870305
217	0xbe4863a1	-0.19569255
218	0xbe9af1f8	-0.30262733
219	0xbeaf2b79	-0.34212855
220	0xbeca46af	-0.39507052
221	0x3c87a275	0.016556958
222	0xbc5f9ccc	-0.013648223
223	0x3ec143fa	0.37747175
224	0x3e8fd99d	0.28095713
225	0xbec40337	-0.38283703
226	0x3eadc6fa	0.3394087
227	0x3e74a1f4	0.23889905
228	0xbda2c14c	-0.07947025
229	0x3eb3fdeb	0.35154662
230	0x3ebb1fdb	0.3654774
231	0x3ebe599a	0.37177736
232	0x3a8acf45	0.0010590336
233	0xbe6be286	-0.2303563
234	0x3e396d8d	0.18108197
235	0x3c5c6ac1	0.0134531865
236	0x3ea0db5f	0.31417367
237	0xbec20415	-0.3789374
238	0xbd7801df	-0.06054866
239	0xbea14e81	-0.31505206
240	0xbebcd213	-0.36879024
241	0xbe4d6b97	-0.20060574
242	0xbe30398a	-0.1720945
243	0xbe86907e	-0.26282114
244	0xbe9c1656	-0.3048579
245	0x3ebcfb18	0.3691032
246	0xbe5926cc	-0.21206206
247	0xbe96c0d5	-0.29443994
248	0x3ebd5354	0.36977637
249	0xbe46eee8	-0.19427073
250	0x3e3d5ebc	0.1849317
251	0xbef25721	-0.473321
252	0xbe931f0e	-0.2873463
253	0xbed82db3	-0.42222366
254	0x3ea0ec95	0.31430498
255	0x3eac8938	0.3369844

network.8.bias f4 [10]
0	0x3d72ae4e	0.05924826
1	0xbea3a461	-0.3196135
2	0x3e152e6f	0.14568494
3	0x3e2d2be7	0.16911279
4	0x3ea800a3	0.32812986
5	0xbe45962e	-0.1929557
6	0x3e11e5cd	0.14247818
7	0xbe9c7791	-0.30559972
8	0xbda5462e	-0.08070026
9	0xbe2c4a7e	-0.16825292
