Pytorch/CampusX/models/fashion_epochs_100.model (torch, 440793 bytes, 6 tensors)

network.0.weight f4 [128, 784]
000000 35 d8 df 3c 3e e2 f9 3c 7e 4a 36 bc 2b 34 03 3d
       0.027324775 0.030503388 -0.011126159 0.032032173
000010 2b f3 11 3d c4 aa e7 3c 12 d4 ce bd fe 8f 6e bd
       0.035632294 0.02827967 -0.10099043 -0.05824279
000020 ab f0 2c be 97 27 7b be 82 98 60 bd 3a b1 30 be
       -0.16888683 -0.24526821 -0.054832943 -0.17255107
000030 d7 51 06 3e 8b 90 00 bd db a7 99 bd 2e e3 97 3d
       0.13117157 -0.031387847 -0.07502719 0.07416378
000040 34 93 a2 3e c7 84 33 bd bc bd 8e be a5 fe e5 be
       0.31752932 -0.0438278 -0.2787913 -0.4492084
000050 c0 d0 9a be 63 80 20 be cd fe a6 3b a5 fb 95 3d
       -0.3023739 -0.15673976 0.0050962926 0.07323388
000060 c1 74 a8 bb 0b 9d 4b bc 4d 7e fe bb f5 e5 af bc
       -0.0051408713 -0.012427579 -0.007766521 -0.021471957
000070 93 a3 57 3b 57 3e 0f bd 28 4b 10 3d 7a 54 c4 bc
       0.0032903894 -0.03497156 0.035227925 -0.023966063
000080 20 24 df 3d 4a 52 20 bb 75 67 7c 3d 25 c4 d7 3c
       0.10895562 -0.002446311 0.0616221 0.026338646
000090 ce 90 7b be 1e df 9f be 6d 71 0d bf 23 e4 e2 be
       -0.24566957 -0.31224912 -0.552512 -0.4431468
0000a0 53 fe 45 3e 28 9f 13 3e 77 7a 55 3e 06 04 9c 3e
       0.19335298 0.14416182 0.20847498 0.3047182
0000b0 0d 6e a4 3d b6 91 8a be 7f 27 e4 be 73 56 ba bd
       0.08028803 -0.27064294 -0.44561383 -0.0909852
0000c0 c0 9d 28 be 7d 12 b0 be 3a 1a 95 bc de 09 20 3d
       -0.16466427 -0.34389105 -0.018200982 0.03907191
0000d0 5b de 24 3c 67 92 00 3d a7 d2 35 3c 29 56 93 3c
       0.010062779 0.03138962 0.011097587 0.01798542
0000e0 98 ff 38 3c 52 71 09 bb 9c 4b cb 3c d1 99 c8 bc
       0.011291407 -0.0020972085 0.024816327 -0.024487408
0000f0 44 96 b1 3d 70 2a 3d 3e 67 6e dc 3d e9 d3 d7 3d
       0.08671239 0.1847322 0.10763245 0.105384655
000100 68 34 e8 3d 31 48 12 3e 8e 00 35 3e 78 d0 91 3c
       0.11338121 0.14285351 0.17675993 0.017799601
000110 26 6e 0d be 3a 4e c2 bd 8f 63 0f 3e 07 b5 f9 bd
       -0.1381155 -0.09487577 0.14002822 -0.12192731
000120 7d 26 e9 bd b4 c6 90 3e c9 62 76 3e 0f 7d e8 3d
       -0.11384294 0.28276598 0.24061121 0.11351978
000130 cb fc 1d 3e 53 a1 6e 3e da 98 24 be e8 48 1b 3e
       0.15428464 0.23303728 -0.16073933 0.1516453
000140 db 74 55 3d b1 2b cd bc a3 f7 75 3c ca 9f 49 bc
       0.052113395 -0.025045248 0.0150126545 -0.012306163
000150 7b 2c b5 3c a1 a4 aa bb 2e a3 ab 3c 71 c8 97 bc
       0.022115937 -0.0052076136 0.020951834 -0.018528195
000160 c2 57 aa 3d 31 f7 0b be d9 fb 2e 3e db 36 95 3c
       0.0831752 -0.13668515 0.1708826 0.018214634
000170 e7 a8 e5 3d 56 1c ee bd 30 a0 ed bd 59 56 cc bc
       0.11213856 -0.116264984 -0.11602819 -0.024943518
000180 08 a8 7d 3e 78 f1 a0 3d 72 5a 83 3c 1c 93 e1 3d
       0.2477113 0.078585565 0.016034339 0.11014387
000190 5d 85 36 3e 9b 20 7d 3d e0 75 5a be cc b2 0c 3e
       0.17824312 0.061798673 -0.21334028 0.1374008
0001a0 69 8c 24 3e 68 1b c4 3e a8 eb cb 3d 62 f0 eb 3c
       0.16069187 0.3830216 0.09957057 0.028801147
0001b0 4e 44 39 3c 8f 96 2a bd 9b 07 73 3c 9c 3d 66 b8
       0.011307789 -0.04164749 0.014833356 -5.489365e-05
0001c0 fb 6f 07 3c 71 2e 30 bd 16 52 9e bd 69 da 85 3c
       0.008266444 -0.04301304 -0.077305004 0.016339498
0001d0 9f 12 19 3d f1 d5 5d be 78 1a 80 3e a8 d5 0b be
       0.037371274 -0.21663643 0.25020194 -0.13655722
0001e0 f3 1d 4a 3c 9c a9 05 be 24 01 4a be 5c 86 d5 3b
       0.012336242 -0.13052982 -0.19726998 0.006516261
0001f0 ee ce 12 bd bd 68 99 bd df a3 c8 3c ff 22 6d be
       -0.035841875 -0.0749068 0.024492202 -0.23157881
000200 9a 0e f1 bd 92 a1 38 bc 62 5f 1e be 9d 1f f9 bd
       -0.11770363 -0.01126899 -0.15466073 -0.12164233
000210 4d 90 aa 3c 80 ec c6 3e cd 29 57 3e 86 24 85 3d
       0.020820761 0.3885231 0.2101204 0.06501107
000220 50 0d 69 ba f6 90 08 bd 09 37 26 bd 19 ed 9d bc
       -0.00088902283 -0.03334137 -0.04057983 -0.019278096
000230 3a 8a b1 3b d5 f3 86 bd 0b 6d 2b 3b 6f 15 36 bd
       0.005418089 -0.06589476 0.0026157524 -0.044454034
000240 bf 33 b3 bd f5 7e 34 be f6 7b 8c 3e 06 f1 38 3d
       -0.08750104 -0.17626555 0.27438325 0.045151733
000250 e7 19 2e be ba bf 9c be 6f 88 2a be 3c cc db bd
       -0.17002068 -0.30615026 -0.16653608 -0.10732314
000260 e6 15 46 be cf 08 83 bd e2 c8 19 3e b5 90 2b be
       -0.19344291 -0.063981645 0.15018037 -0.1675442
000270 14 c9 31 be 76 6b 9b bd cc c7 22 3d 22 b6 f0 bd
       -0.17361861 -0.07588856 0.039741322 -0.11753489
000280 61 33 11 3c cb e5 bf 3e 58 82 9d 3e eb a6 62 3e
       0.008862347 0.37480006 0.30763507 0.22133987
000290 39 b8 80 bc c5 ea 11 bd 61 e5 b6 bd 1c 13 9c 3c
       -0.015712844 -0.035624284 -0.08930469 0.01905208
0002a0 a4 56 90 bb 81 56 6e bd f0 5b 21 bd 74 cc 6a bd
       -0.0044048596 -0.058187965 -0.03939432 -0.057323888
0002b0 3c 43 42 be 2a 1b 33 be 7d 88 45 3e 90 3f df 3d
       -0.1897096 -0.17490831 0.19290347 0.109007955
0002c0 4d 91 42 be f5 f7 16 be 5d 30 73 bc b4 da 31 3e
       -0.1900074 -0.14743026 -0.014843074 0.17368585
0002d0 13 76 29 3e 0b 17 ff 3d 42 71 84 3e f0 08 66 bd
       0.16548948 0.12455567 0.2586766 -0.056160867
0002e0 6b 66 8a bd 2c b3 24 3e 87 14 0e 3e 73 d0 ff 3d
       -0.06757816 0.16083974 0.13875018 0.124909304
0002f0 d1 c8 fe bd 78 75 82 3e b4 c4 b0 3e 59 a7 bd 3d
       -0.124406464 0.25480247 0.34525073 0.09260435
000300 99 ff 3b 39 d1 4a 81 bc c4 f4 a0 bd da 87 07 bd
       0.00017928927 -0.015782746 -0.07859185 -0.033088543
000310 04 7f 61 bc 3d 41 3d bd 9d 25 37 bd 50 e2 b8 bd
       -0.013763193 -0.046204794 -0.044713605 -0.09027541
000320 7c 20 4f be 39 7b e9 3b 38 05 88 3e da b1 38 3e
       -0.20227236 0.007125285 0.26566482 0.18036595
000330 b3 18 41 bd dd d5 95 be f5 94 15 be bc 8b ae bd
       -0.047142696 -0.29264727 -0.14607604 -0.08522746
000340 d4 ce 5b be dc b8 60 bd 1e 96 23 3e 62 68 2b bd
       -0.21465617 -0.054863796 0.15975234 -0.041847594
000350 5b 29 f3 bd cd 5c 4f 3e a1 47 20 3e 11 80 db 3e
       -0.11873122 0.20250244 0.15652324 0.42871144
000360 74 ca aa 3c 5d 89 84 3e 11 ea 86 3e 79 c1 e3 bd
       0.02084849 0.2588605 0.26350453 -0.11120886
000370 03 3e 30 3c 30 86 8a bd f0 d8 ae bc 69 be 87 bc
       0.010756972 -0.067638755 -0.021343678 -0.016570287
000380 35 93 75 bd fe a7 2d bd cd 56 b5 bb 4b 9a 9c bd
       -0.05995484 -0.042396538 -0.005534029 -0.076466165
000390 9a 1f a2 be 34 41 c7 3d 96 11 09 3e 51 d0 73 3d
       -0.31664735 0.097292334 0.13385615 0.059524838
0003a0 b5 c9 32 bd 57 7f 40 be af 79 40 be 3c db 0a be
       -0.043649394 -0.18798576 -0.18796419 -0.13560194
0003b0 2c 9a 2c be 91 6f 60 bd 02 8a 42 bd 05 eb 17 be
       -0.16855687 -0.054793898 -0.047494896 -0.14835747
0003c0 87 16 82 be cc 66 d7 bd 8b be 1f be 64 62 07 3e
       -0.25407812 -0.10517654 -0.1560003 0.13221127
0003d0 a2 4d 9a 3b 40 09 52 3e cd 1d 5d 3e 1c af d7 bd
       0.0047089616 0.20511341 0.215934 -0.10531446
0003e0 fc 6c 39 bd 94 2a 19 be e9 32 98 bd 97 43 e9 bc
       -0.04526995 -0.14957649 -0.07431585 -0.028474612
0003f0 96 c4 71 bd 1a f2 55 bd 97 96 33 bd 42 78 94 bd
       -0.05902537 -0.05223284 -0.043844786 -0.072495

network.0.bias f4 [128]
000000 9b 51 15 3e 4e e7 1c bf bb 57 94 bd 5c d8 91 bd
       0.14581911 -0.6129044 -0.07243296 -0.071213454
000010 5c 6c 94 bd 23 9f 31 3f e9 35 47 3f aa ea 68 bf
       -0.072472304 0.6938345 0.77816635 -0.9098307
000020 00 3f 04 3f 73 ab 00 3f 1c b9 b3 be 2b d4 2e bf
       0.5165863 0.5026161 -0.35102165 -0.6829249
000030 36 42 ba 3e 13 c1 0b bd 3c 34 88 3e 59 31 3c bc
       0.3637864 -0.034119677 0.26602352 -0.011486375
000040 10 67 53 3f 61 f2 f0 be 32 89 28 3e a9 84 93 3e
       0.82579136 -0.4705992 0.16458586 0.2881215
000050 68 28 44 bd 55 61 58 3f 85 7f c4 be a3 61 cc be
       -0.047890097 0.84523517 -0.3837854 -0.3991824
000060 f6 d4 84 3e d0 f6 2d 3f 75 37 8a 3e 64 3d 01 3c
       0.25943726 0.6795473 0.26995435 0.007888172
000070 3e fd d0 3e 56 d7 ab be 02 10 5e bf cc 34 70 3f
       0.40818208 -0.33562726 -0.86743176 0.9383056
000080 bb 90 ac bf 30 e3 09 3d 9c d5 09 bf 0d bd 66 3e
       -1.3481668 0.03366393 -0.5384157 0.22533055
000090 ea ac de 3d e1 6f a1 3e 3c 90 f1 3c d8 8f ca bf
       0.108728245 0.3153067 0.029487722 -1.5825148
0000a0 55 20 09 3f 2b 48 25 3d e7 ff 85 bf e4 d4 1d bf
       0.5356496 0.040352028 -1.046872 -0.6165297
0000b0 14 18 0f bf 05 47 3d 3f 82 07 bf be 5e 8b 32 be
       -0.55896115 0.7393649 -0.37310416 -0.17435977
0000c0 93 29 7c 3f 73 8b 41 3f 04 13 92 be 8d f8 09 3f
       0.9850094 0.7560341 -0.28530133 0.53894883
0000d0 6b 2a 6d bf 51 89 df be cb 5f a5 3d 3e 05 7a 3d
       -0.9264285 -0.43659452 0.08074912 0.061040156
0000e0 28 40 9a be 18 a1 82 3f 23 8d 47 3e 49 99 07 bc
       -0.30127072 1.0205412 0.19487433 -0.008276292
0000f0 c7 c8 a9 3e 74 3e fe 3e 16 62 42 3f b1 85 65 3f
       0.33160993 0.49657023 0.7593092 0.8965712
000100 3e 73 90 bf a4 2e fc 3e db ba 38 3e ee aa d4 bd
       -1.1285169 0.49254334 0.1804003 -0.10384165
000110 b0 00 5c 3e 6f 3b 11 be 51 35 0e 3f f5 e2 86 3c
       0.21484637 -0.14182828 0.55550104 0.016465643
000120 c9 91 97 3f db 54 5e 3d 5e aa 25 be ac 93 a2 3c
       1.1841365 0.054280143 -0.16178271 0.019845806
000130 a9 74 a9 3e 1a 94 56 be 37 a5 9c 3e 92 7f ee 3e
       0.33096817 -0.20954934 0.305948 0.46581703
000140 16 52 5c 3f c7 62 a8 3e 5c d3 c4 3e 3d e7 f2 3e
       0.86062753 0.3288786 0.38442504 0.47442046
000150 21 46 0f 3e 61 95 74 3f 17 cf c4 bd 3d da 76 3d
       0.13991596 0.95540434 -0.09609812 0.060266722
000160 25 55 f6 bd e0 c0 11 3e dd bc e6 3e 88 64 dd 3e
       -0.12027959 0.14233732 0.45065966 0.43240762
000170 f9 e6 58 3f a9 74 89 bf 77 2a 44 3f 96 b6 d2 3e
       0.84727436 -1.0738727 0.76627296 0.41154927
000180 1b c2 30 bf b3 21 09 3f 6d a2 46 be d3 4d 10 3e
       -0.6904618 0.53567046 -0.19397898 0.14092188
000190 d3 8a 23 be 30 29 74 3f c0 e2 98 bd d4 9f ce bd
       -0.15970926 0.9537535 -0.07465124 -0.100890785
0001a0 5d 22 02 be 4e 08 39 3f 9c 08 d4 be 12 f4 6f 3f
       -0.12708421 0.72278297 -0.41412818 0.93731797
0001b0 d8 5c 2e 3f cd a7 b3 3f c5 17 e8 3e b8 2d 59 3f
       0.6811042 1.4035584 0.45330635 0.84835386
0001c0 94 dd 33 3f fa cc eb be 45 cd 72 3e 9c 12 f4 3e
       0.70259976 -0.46054822 0.23711117 0.47670448
0001d0 1c 9e 15 3f 96 0d f0 be 11 a2 4b 3f aa 32 7b 3d
       0.5844438 -0.46885365 0.7954417 0.061327614
0001e0 bc 07 35 3e bc 46 04 bd 71 13 0b be 67 96 da 3f
       0.17678732 -0.03229402 -0.13581635 1.7077149
0001f0 62 3f 96 3e b9 e8 27 bf 84 ec 6e 3e 0b 77 73 3f
       0.29345232 -0.6558948 0.23332411 0.9510352

network.2.weight f4 [64, 128]
000000 ad d5 ce bd 29 cb 9c 3e 4f 04 63 3d 48 c8 e4 3e
       -0.10099349 0.3062375 0.05542403 0.44684052
000010 43 fd e6 bc 84 e1 87 3d aa e0 90 be 3d f4 c7 3e
       -0.028196936 0.066348106 -0.28296405 0.39053527
000020 26 ca fc 3d d0 81 91 bd 40 2e 51 be 84 78 2d bf
       0.12343244 -0.07104838 -0.20427799 -0.6776202
000030 87 dd f9 3c 05 f5 19 bd 58 9c 6a 3d 15 db 93 3d
       0.03050114 -0.037587184 0.057278007 0.07219521
000040 ad 21 90 be 7c 00 45 bf 4b 6d 71 be 0a fa 24 3f
       -0.28150693 -0.76953864 -0.23576848 0.6444403
000050 38 6d c7 be 69 15 50 3d c8 cd cd be ce e4 c7 3e
       -0.38950515 0.05080167 -0.4019606 0.39041752
000060 5b d8 54 be b4 60 24 be 2f 51 fc 3d b8 04 2b be
       -0.20785658 -0.16052514 0.12320172 -0.16701019
000070 c4 4c 07 3e b2 7c ad 3a 96 91 26 bf a9 ff d9 3e
       0.13212878 0.0013236015 -0.65065897 0.42577866
000080 8b 94 fd be 11 c8 40 be d6 30 27 be 6f 9a 91 bd
       -0.49527392 -0.1882632 -0.16327223 -0.07109534
000090 4b fa 2b 3e 24 80 49 3d 1d 90 42 be fa b4 4a bd
       0.16794698 0.04919447 -0.19000287 -0.049489
0000a0 10 db 6b 3d 90 e7 31 3b c4 51 38 be 15 c7 4f 3e
       0.05758196 0.0027146079 -0.17999941 0.20290788
0000b0 8f 24 98 3e 6b 6a 6b be f3 18 4c bd 6e 8f 83 bd
       0.29715392 -0.22989814 -0.04982848 -0.064238414
0000c0 36 89 ca be 45 e0 42 3e 4e 50 de be 7a 07 05 bd
       -0.3955781 0.19030865 -0.43420643 -0.032477833
0000d0 37 88 bd 3d 7a 3d 30 be c9 84 48 3e bc 8b 67 3c
       0.092544965 -0.17210951 0.19581904 0.014132436
0000e0 a7 3a 83 be e8 29 61 3e 34 11 ac 3d e0 46 a8 3d
       -0.25630686 0.21988642 0.08401719 0.08216643
0000f0 1a f3 83 3c 96 04 62 be 47 18 c8 bd 2f f2 ec be
       0.01610713 -0.22072062 -0.097702555 -0.4627852
000100 b1 0b 3f be 1f 70 bb 3e 7d 8f c3 3e be 04 71 be
       -0.18656804 0.3660898 0.3819541 -0.23536965
000110 44 59 ac be 6d 98 1c be a4 c7 53 bf 5f 7e 9f 3d
       -0.33661854 -0.15292521 -0.827265 0.07787775
000120 3a 28 6a 3e 39 6f ed bc 93 04 86 3e ae 61 ae 3d
       0.22866908 -0.0289837 0.26175365 0.08514725
000130 6e 02 26 3e 53 6a 11 3d 54 4b 4b 3e e8 74 a6 bd
       0.16211864 0.03550179 0.19852954 -0.08127767
000140 84 c2 ae be 3d bf b3 3e 1b 15 ef be c1 ac a9 3c
       -0.3413278 0.3510684 -0.4669579 0.020712258
000150 35 e9 62 3e bc 52 45 3d 81 0b 02 3e bf ec 6e 3e
       0.22159274 0.048174605 0.12699701 0.23332499
000160 3e ce a7 bd 9e f4 9e 3e 5b b3 9a be de e8 a7 bd
       -0.081936345 0.31046003 -0.30214962 -0.08198713
000170 6a 40 e7 bc 5b a8 b1 be 7f 47 be 3d a1 a8 19 3e
       -0.028228957 -0.34698758 0.092909805 0.15005733
000180 15 5d 19 bd 49 e4 57 be 7a 96 45 be 69 a9 c7 bd
       -0.037442286 -0.21083178 -0.19295684 -0.09749109
000190 6b 4d 1a 3e 21 5f 89 3e 3a 5d 98 bd 5c 8a ff 3d
       0.15068595 0.2683039 -0.074396566 0.12477562
0001a0 a1 17 99 bc 87 d1 ac bd e5 38 c2 be e3 d7 a0 3e
       -0.018688025 -0.08438402 -0.37934032 0.31414708
0001b0 10 ad 35 bd d5 8e 6f 3e 70 7b 95 3d d3 3e cc be
       -0.0443545 0.2339433 0.072989345 -0.3989168
0001c0 73 37 0a 3d b5 dd 02 be 3d 89 02 3e 72 38 98 3e
       0.033744287 -0.12779887 0.12747665 0.29730564
0001d0 7e 5e 83 bc 05 9d 83 3e 33 16 14 be 28 cd b4 3c
       -0.016036268 0.25705734 -0.14461593 0.022070482
0001e0 a3 d0 df bc 37 52 e6 be 9c 61 85 be 36 4f b2 3d
       -0.027321165 -0.449846 -0.26051033 0.087065145
0001f0 72 02 78 bd 9e 85 7b be db fa fc 3d 8f 1a af bd
       -0.060549207 -0.2456269 0.123525344 -0.085499875
000200 c1 3f 52 3e 0b ab 91 3d 64 a9 84 be ad 50 c1 be
       0.20532133 0.07112702 -0.25910485 -0.37756863
000210 32 54 5e be a1 34 02 bd 0f 6f f1 3d 58 45 a0 be
       -0.21711805 -0.031788472 0.11788761 -0.31302905
000220 29 7d 8a be 76 c4 3f bd 18 2c 31 3e 44 85 84 be
       -0.27048615 -0.04681822 0.17301977 -0.25882924
000230 a0 35 0e 3e 03 31 b6 3c 17 a5 dd 3e 4d 7a 54 3d
       0.13887644 0.022240167 0.43290016 0.051874448
000240 c8 67 32 3e e3 23 70 be 52 30 b5 3e 84 de 00 3e
       0.17422402 -0.2345119 0.35388428 0.12584883
000250 bc 20 09 3e 95 f8 86 3d e5 4e e4 be e7 f9 25 3d
       0.13391393 0.06590382 -0.44591442 0.04052153
000260 37 94 19 be 8e 1a 1a 3e a2 d9 b3 be 0e e8 22 3f
       -0.14997946 0.15049192 -0.35126978 0.6363534
000270 e0 1c b5 bc 1e 02 07 be aa bb ab bd 6e 79 ba 3e
       -0.022108495 -0.13184401 -0.083854035 0.36420768
000280 f4 63 76 be 70 4e 0d bd cc 3b 3c be 39 39 af be
       -0.24061567 -0.034498632 -0.18382186 -0.34223345
000290 1b 41 df 3e 41 96 99 bd 33 66 45 be 93 e3 2e 3e
       0.4360436 -0.07499362 -0.19277267 0.17079
0002a0 06 76 39 3d d6 28 11 bd 5a 7f 88 3b e4 48 4a bd
       0.04527857 -0.035439335 0.004165572 -0.04938592
0002b0 37 86 40 be 4e dc 06 bf b5 36 54 3d c5 41 b0 3e
       -0.18801199 -0.5267991 0.051809985 0.34425178
0002c0 80 7c 02 be 48 ce e0 3d f9 7b 49 bd 0b da 9a bd
       -0.12742805 0.10976845 -0.049190495 -0.0756112
0002d0 04 11 e9 bd 96 b3 89 bd 28 82 e4 bd 4f 5f 82 bc
       -0.113801986 -0.067237064 -0.11157638 -0.015914587
0002e0 0c b9 15 3d 91 5d e1 be 08 1c f2 3e 92 63 f9 bd
       0.036553428 -0.44016698 0.4728701 -0.12177195
0002f0 81 37 94 bc ac 16 cf be 4e 77 06 3e ad 8f 13 bc
       -0.018092873 -0.40446985 0.13131449 -0.009006423
000300 ad a8 95 bd f6 97 77 be 6c 56 8e bd b5 51 f5 3e
       -0.07307563 -0.24179062 -0.069500774 0.479139
000310 8f a4 c4 3d 53 5d 53 3e 6f a6 ba 3e 68 5b 50 bc
       0.096016996 0.20641069 0.36455104 -0.012717105
000320 e6 3c 41 3e e6 b2 9b 3c b8 d2 98 be f5 6f 2f 3f
       0.18870887 0.019006204 -0.29848266 0.6853021
000330 b4 13 58 be d5 fe b3 be 0a 7d db 3d 26 71 f8 bd
       -0.21101266 -0.3515536 0.10717209 -0.12130956
000340 d1 4e c6 3e 2e a7 fc be cd 8b 89 3e 62 7d 93 be
       0.38732007 -0.49346298 0.26864472 -0.28806597
000350 9d ef bd 3d 91 9d cc bd 24 b3 7e 3e 74 b7 29 3e
       0.09274218 -0.09990991 0.24873024 0.16573888
000360 c8 fd d3 bd 3b f3 c8 bd d0 f1 01 bd 51 f5 7f 3e
       -0.10351139 -0.098120175 -0.03172475 0.24995925
000370 7c 03 e4 3d 6f 01 04 3e 96 e7 d4 be ae 40 0a bd
       0.11133477 0.12891172 -0.41582936 -0.03375309
000380 a1 a1 3e bd be 16 16 bf 9e cd 18 3e 3b 78 46 be
       -0.04654086 -0.5862845 0.14922187 -0.19381802
000390 e5 d7 d6 be bf 40 b9 be 4e 0e 0c be d0 47 f1 bd
       -0.4196159 -0.3618221 -0.13677332 -0.11781275
0003a0 13 81 05 3e 08 52 b4 be 45 32 19 be 35 df 70 be
       0.13037519 -0.35218835 -0.14960583 -0.23522647
0003b0 71 4e bf 3e 77 89 d5 3e cc 2b 70 3e 1c 6c 99 3e
       0.37364534 0.4170644 0.23454207 0.29965293
0003c0 71 8a 43 bf 17 07 50 3e 1a 1e 5b 3d 25 42 05 be
       -0.7638312 0.20315205 0.053495504 -0.13013513
0003d0 c7 96 04 bc 9c 72 60 3e 0b 73 25 3d ef aa ac bd
       -0.008092589 0.2191872 0.040392917 -0.084310405
0003e0 0e 95 4f be 43 92 75 3e 90 84 31 3e c1 4f d5 3e
       -0.20271704 0.23981576 0.17335725 0.4166241
0003f0 69 b7 8c be 6c 14 08 bf e8 c0 9d be 78 48 b2 3e
       -0.2748368 -0.5315616 -0.30811238 0.34820914

network.2.bias f4 [64]
000000 a5 92 16 3f f4 a7 3d 3f d4 63 9e be e5 8b 01 3f
       0.5881751 0.740844 -0.30935538 0.5060409
000010 bb 82 36 be 3d c2 a7 3d 6e 6e d2 bd 3d a2 04 3f
       -0.17823307 0.08191345 -0.10274969 0.51810056
000020 82 95 51 3f 06 05 45 be 8b 2d 2d 3f fd a9 1a 3f
       0.81868756 -0.19240198 0.6764762 0.6041563
000030 6d cd 40 bd d7 82 7e 3f 75 0e 48 3e 26 d4 b3 3c
       -0.04707091 0.99418396 0.19536765 0.021951746
000040 f2 df 07 3e 45 dd 53 3e ec fb e8 bb 41 c1 2c be
       0.13269022 0.20689876 -0.0071101096 -0.16870596
000050 c8 3b 0f 3e 60 68 53 3f 93 55 7b be 6c 5d e2 3e
       0.13987648 0.8258114 -0.24544363 0.442119
000060 c4 a1 10 3f f4 77 48 3e 68 6c 1c 3d 36 a5 f9 3e
       0.56496835 0.19577008 0.03818932 0.48758858
000070 d7 ed ea 3e ba de a8 3e 13 92 36 3f a3 07 24 3f
       0.45884582 0.32982427 0.7131664 0.6407415
000080 bc db fa 3e 91 f2 65 bb 40 5e cb 3e 19 c0 12 3f
       0.4899577 -0.0035087208 0.39720345 0.5732437
000090 90 b9 61 3e a2 35 1b 3e 3a fe 50 3f b0 d5 1a 3e
       0.22043443 0.15157178 0.8163792 0.15120578
0000a0 75 57 3b 3f 39 d5 00 3f a1 65 83 3f 7f 50 14 bc
       0.73180324 0.5032535 1.026539 -0.009052395
0000b0 c6 bd 30 3e 41 e1 ab be 3d 0d 94 3e 49 97 53 3f
       0.17259893 -0.33570293 0.2891635 0.8265272
0000c0 52 b7 4d 3e a5 0a 25 3f 7b e2 b6 3d 71 e1 da be
       0.20089462 0.6446937 0.089299165 -0.42750123
0000d0 20 35 fd bd 87 6d c9 3e 75 c8 82 3d d8 9f d4 be
       -0.123636484 0.39341375 0.063858904 -0.415282
0000e0 22 27 80 3d c4 2b 89 3f db ba 08 3f 25 95 32 3f
       0.06257464 1.0716481 0.5341012 0.69758826
0000f0 9a b7 1d 3e 9a 73 dc be f1 26 4f 3f bb 48 07 3f
       0.1540207 -0.43056947 0.80918795 0.5284535

network.4.weight f4 [10, 64]
000000 68 56 40 3e 34 24 84 3f 6e 02 1c 3f 04 33 46 3e
       0.18782961 1.0323548 0.6094121 0.19355398
000010 79 39 ba 3d 18 d1 35 3f 3b 68 9e be 55 1c 5b bf
       0.09092993 0.71022177 -0.30938897 -0.85590106
000020 00 90 2b 3f 21 0c 52 3e 45 de 55 3f ce e3 42 3f
       0.670166 0.2051244 0.8354228 0.7612885
000030 c3 85 12 3e 05 93 57 bc 5b 40 e4 be c2 b7 2b bf
       0.14308839 -0.013157611 -0.4458035 -0.6707727
000040 77 3f c0 be 95 56 6c 3f 47 3d 07 bf b1 6b f4 3c
       -0.3754842 0.92319614 -0.52827877 0.029836508
000050 93 38 91 3e d5 81 46 bf cc 46 4e 3f 2b ea e4 be
       0.28363475 -0.7754186 0.8057678 -0.44709906
000060 4d f0 0c 3f 00 b1 dd be 0b bb 45 3f 88 f5 33 bf
       0.5505417 -0.43299103 0.7723853 -0.70296526
000070 e9 96 cd 3e d2 b1 3a be 62 89 80 3d a0 75 99 3e
       0.40154198 -0.18231896 0.06276204 0.29972553
000080 60 fe 2b bd 06 85 57 bf 1a 4e 49 be f9 9c 6d be
       -0.041990638 -0.8418735 -0.196587 -0.23204412
000090 92 38 01 bf a0 01 d1 3e 16 ab 02 3e 89 db 21 3f
       -0.50476944 0.40821552 0.12760577 0.6322561
0000a0 80 be 62 bf 0d 49 a3 3d ec 78 4e 3e 38 e5 d7 be
       -0.8857193 0.07972918 0.20163316 -0.42167068
0000b0 89 3d f3 be 8e 43 3b 3f c6 da ee bd f2 8e 51 3f
       -0.47507885 0.73149955 -0.116628215 0.8185874
0000c0 fd 90 59 3f 5b 37 2d bf e3 a1 cc be cd 43 23 3f
       0.8498686 -0.6766259 -0.3996726 0.6377533
0000d0 70 05 61 bd 22 5c 82 3f 70 eb a8 be 11 9a f7 3e
       -0.054936826 1.0184367 -0.32992125 0.4835973
0000e0 2b 46 18 3e f0 e6 06 3f 93 f3 4a bf d6 05 b0 be
       0.14870517 0.5269613 -0.79277915 -0.34379452
0000f0 f7 ab 14 bf 38 e3 02 bf 15 1c b2 bf b5 b3 00 bf
       -0.580749 -0.5112796 -1.391482 -0.5027421
000100 33 b1 50 bd e2 98 79 bf a0 21 e1 3e 81 97 9a bd
       -0.05095024 -0.97498906 0.43970966 -0.07548428
000110 a6 c8 c9 bd 73 04 0b 3d b1 0a 5c 3f 2c 62 3b bf
       -0.09852724 0.03393979 0.85953814 -0.73196673
000120 e2 14 4a bf a7 d7 86 be 68 da 3c bf ff 09 01 bd
       -0.78938115 -0.26336405 -0.7377076 -0.031503674
000130 5c ea 52 bd 45 b1 fc 3e 3b d5 cc 3b 7e 64 b0 3e
       -0.051493034 0.49353996 0.006251005 0.3445167
000140 71 12 f2 be 35 14 eb be 49 a5 4f 3f 7b 7a 05 be
       -0.47279695 -0.45913854 0.8111158 -0.13035004
000150 79 73 7f 3e d6 87 d0 3d 9d d5 5e 3f 2d 26 b9 bd
       0.24946393 0.10182159 0.870447 -0.090404846
000160 15 89 60 bf 5b ed 4e bd bf 69 bd bd f2 20 17 bf
       -0.8770917 -0.05051933 -0.09248685 -0.59034646
000170 ca 3e cb bd 51 66 d3 be 22 ba 89 3e 50 06 8e be
       -0.099240854 -0.41289 0.2689982 -0.2773919
000180 0d d3 9f 3e 2a 7f b1 3f 26 22 1a bf ee e0 0b 3b
       0.31215706 1.3866932 -0.60208356 0.0021343785
000190 76 c0 b0 be f9 44 40 3f 11 d7 89 3f 34 f5 1e be
       -0.34521836 0.75105244 1.0768758 -0.15523225
0001a0 27 c0 10 bf c9 f5 39 be b0 ed 3c 3f ca ab 8b be
       -0.565432 -0.18160166 0.7380018 -0.27279502
0001b0 08 1e 1d 3f 7a 7b 6d be 03 5a 9f be a5 da d7 3e
       0.6137395 -0.23191634 -0.3112336 0.42159
0001c0 26 3d 4c 3e 27 ec 62 be a0 eb 20 3d a7 fb a2 bd
       0.19945201 -0.22160397 0.03928721 -0.07958155
0001d0 df 13 3d 3d 20 1e d0 be 60 97 3e 3c e1 19 76 be
       0.04616153 -0.40647984 0.01163277 -0.2403331
0001e0 70 f8 b0 3d 73 db 07 be dd ad e8 be e4 a6 44 bf
       0.08641136 -0.13267307 -0.45445147 -0.76817155
0001f0 4c aa 62 3e 77 c3 8c 3d 04 12 4f 3f ee 30 43 bf
       0.22135276 0.068732195 0.80886865 -0.76246536
000200 1d 90 13 bf 34 0b 99 3f 00 a6 24 be 9f 36 98 bd
       -0.57641774 1.1956544 -0.16078949 -0.07432293
000210 28 71 9d be 0d 56 a7 bf 4c d1 b4 be 71 ae 48 3f
       -0.30750394 -1.3073136 -0.3531593 0.78391176
000220 87 95 00 3f 29 43 d2 3e ff d9 b5 bc bb 99 55 3f
       0.5022816 0.41066864 -0.022198675 0.834377
000230 3f 18 02 3f 82 6e 4d bf 1f e7 26 be cc e0 f5 be
       0.50818247 -0.80246747 -0.16299103 -0.4802307
000240 60 13 11 3f 11 34 84 bd 2f 76 25 bf 8a fe ed be
       0.5667019 -0.064552434 -0.6463346 -0.4648326
000250 23 9b 43 3e ff d3 07 3f 8e 20 b4 3d 26 8a 0a 3f
       0.19102149 0.53057855 0.08795272 0.5411705
000260 fa b7 e5 3e 6e 4b 29 be 53 43 00 3e 0e dc 11 be
       0.44866925 -0.1653268 0.12525682 -0.142441
000270 e0 52 a2 3e b6 f3 1f 3e df 39 05 bf cf 6c bb be
       0.31703854 0.15620312 -0.5204143 -0.36606452
000280 be 3b 14 bf f2 3d 09 bf 24 9b 17 3f b1 ca 25 bd
       -0.5790366 -0.53610146 0.592211 -0.040476505
000290 b6 15 b6 be 73 3d c2 3e f4 7b cd 3e f9 ee c5 be
       -0.3556344 0.37937507 0.4013363 -0.38658884
0002a0 41 b0 5d 3e 17 69 d6 3e 5a 49 2c 3e 8a 62 e0 3d
       0.21649267 0.41877052 0.16824856 0.10956295
0002b0 7e 6c d5 b9 db ac 0c bf a0 71 fb 3e d8 46 4c 3f
       -0.0004070736 -0.54951257 0.49110126 0.797956
0002c0 2d d4 4c bf f1 68 e0 be b1 38 d6 be 1b c9 ea bd
       -0.80011255 -0.43830064 -0.41840127 -0.11464139
0002d0 44 49 b2 be 8b 03 99 bf 6c ab 8d 3f 62 e0 95 bf
       -0.34821522 -1.1954206 1.1067939 -1.1709101
0002e0 1a 94 4a be e1 d2 4c 3f 3d e1 ed be e9 42 9d 3f
       -0.19783059 0.80009276 -0.46460906 1.2286044
0002f0 4a 90 54 be 1f f0 84 3f c4 21 fa 3e 7b 02 0f 3f
       -0.20758167 1.0385779 0.48853886 0.5586316
000300 0a 89 6e 3f 82 67 36 bf 0e d7 72 bf 45 9e d2 be
       0.93177855 -0.7125169 -0.948594 -0.41136375
000310 35 ca 25 bd 80 a0 66 bd 88 8e ec 3e a7 48 b0 3d
       -0.040476043 -0.05630541 0.46202493 0.08607607
000320 0c 81 29 3f 67 b1 36 be 57 31 31 3f 5d 88 1f 3f
       0.66212535 -0.17841111 0.6921591 0.6231745
000330 d8 b1 79 3e 61 0f 7b 3f 31 fd 2f bf eb 3f eb 3e
       0.24384248 0.9807034 -0.68745714 0.45947203
000340 7e 50 77 be d5 62 0a 3f 29 bc fa bc d3 73 ef bc
       -0.24151799 0.54057056 -0.0306073 -0.029230034
000350 94 8d 61 3e 4b 4c 26 3f 37 f1 e3 be 4b e4 36 be
       0.22026664 0.64960164 -0.4451997 -0.17860524
000360 8c e4 67 be 19 75 c7 3e fc 69 cd 3e ec 91 1a bd
       -0.22645777 0.38956526 0.40119922 -0.03773682
000370 c4 eb 9c bf da 2c 3a 3f e7 7c 6f be ea c6 47 3f
       -1.225945 0.7272469 -0.2338749 0.78037894
000380 1d 6c 14 3f 2a 24 cc be d8 ea 0e 3f 25 93 34 3e
       0.5797747 -0.3987134 0.55827093 0.17634256
000390 2f d3 d9 3e b5 2e 88 3e 9a 4e b2 3e 63 5a a9 3e
       0.42543933 0.26598135 0.34825593 0.33076772
0003a0 82 4a 5c bc 7b 8f 3e bf c0 67 12 3f 6f 9d 0f 3e
       -0.013445498 -0.74437684 0.5718956 0.140249
0003b0 36 c2 ea 3e 1c 53 1e bf 47 4f 0a 3f ef 0d ac bf
       0.45851296 -0.61845565 0.5402722 -1.3441752
0003c0 83 f3 09 bf e6 fd 93 be 83 f9 32 be 1d 6e e9 be
       -0.53887194 -0.28904647 -0.17477994 -0.45591822
0003d0 1b f5 bf be 1d 51 48 3f 11 27 b4 bd d1 ec cc bc
       -0.37491688 0.7824877 -0.08796514 -0.025015267
0003e0 8b fc 91 3d 74 0c b8 be 05 ee c8 3e 5a b9 b7 bf
       0.07128247 -0.35947 0.39244094 -1.435344
0003f0 15 29 92 bf 85 bc 5d bf 02 7e 10 3e 48 5c 31 3f
       -1.1418787 -0.8661578 0.14110568 0.69281435

network.4.bias f4 [10]
000000 f8 36 b8 be fb 40 4d bf 44 cd 54 3f 5b 95 1f 3e
       -0.35979438 -0.8017728 0.8312571 0.15584318
000010 0c 69 4f be ff 48 27 3e 35 89 20 3f aa 7b d7 bd
       -0.20254916 0.1633644 0.6270936 -0.10521634
000020 21 d4 ab 3d 2b 87 26 bf
       0.0839007 -0.6505
